compas_model.pt (torch_old, 7527 bytes, 9 tensors)

fc1.weight f4 [20, 10]
000000 b0 88 f1 bd 71 51 c3 3f b1 82 e4 be 2f b3 27 3f
       -0.11793649 1.5259229 -0.4463096 0.6550779
000010 d0 00 da 3e b8 78 88 bf 14 8e 25 3f b9 77 65 be
       0.42578745 -1.066184 0.6466992 -0.22408952
000020 01 3b d0 3e c0 2f 31 bf 7b 35 43 bd 1e 00 8d 3e
       0.40670016 -0.69213486 -0.047658425 0.27539152
000030 c3 0e c2 bd 5f 18 ab bf c6 87 b0 3f 7a a0 c1 bf
       -0.09475472 -1.3366812 1.3791435 -1.5127099
000040 33 65 35 3f d5 12 04 be 87 1f 06 3f 12 f2 98 bf
       0.7085754 -0.12897809 0.52391857 -1.1948874
000050 89 d7 73 3e e6 ae fd 3f d1 5b 9b 3e 46 25 78 3f
       0.23812689 1.9819 0.30343488 0.96931875
000060 9f 44 b0 bf 51 df e2 be 7f 04 cc 3f c3 0a 54 bf
       -1.3770941 -0.44311002 1.5938872 -0.8282892
000070 09 0a 5f 3f e1 d2 b9 bf 32 ef c8 be 7f b4 59 be
       0.8712469 -1.451748 -0.39244992 -0.2126026
000080 dc df f1 3b 00 eb 36 bf ab 71 13 3b c8 3c 3d bf
       0.0073814224 -0.7145233 0.0022498171 -0.7392087
000090 3a 95 55 be d6 9b 2e bd 24 92 c8 be 33 c0 4e bd
       -0.20857707 -0.042629085 -0.39173996 -0.050476264
0000a0 01 97 0e 40 93 96 17 40 c6 21 01 3f da 12 00 bf
       2.2279665 2.3685653 0.5044216 -0.50028765
0000b0 ef 03 c0 bf 32 ce 2c 3f b6 a4 5a bf 58 82 12 bf
       -1.50012 0.6750213 -0.8540758 -0.5723014
0000c0 5b 4f 20 bf b4 db 69 3f e9 ce 44 bf 00 53 85 bf
       -0.62621087 0.91350865 -0.7687822 -1.0415955
0000d0 8e f5 62 be 06 84 39 bf ac 6d e6 3e e3 45 e5 bf
       -0.22163984 -0.72467077 0.45005548 -1.7911953
0000e0 67 19 b4 be 80 3b c7 3e 32 c0 b6 be c7 5d 06 bf
       -0.3517563 0.38912582 -0.35693508 -0.5248684
0000f0 19 cd fe 3c 2c ea d4 bd c6 97 fe be c5 a0 32 3e
       0.031103658 -0.10396227 -0.4972517 0.17444141
000100 7b c2 64 3d d9 67 fc 3e b5 99 bb be 90 c7 4a be
       0.055849534 0.4929798 -0.36640707 -0.1980269
000110 9d ef 68 be 15 46 21 3d 14 80 2b 3f 10 bd 07 40
       -0.22747655 0.039373476 0.66992307 2.1209145
000120 37 36 b9 3e 20 ba d1 bf c8 b7 d0 be c8 f5 43 3f
       0.36174175 -1.6384926 -0.40765214 0.7654691
000130 4f d0 a3 3e 4d b3 c8 bf a0 23 05 3f 85 a6 d9 bf
       0.31994864 -1.5679718 0.52007484 -1.7003943
000140 71 ac 83 3e a7 29 2e bf 44 0a 4e be ad f5 ff be
       0.257175 -0.68032306 -0.20121104 -0.49992123
000150 b1 50 0c 3e ec fe 78 3e bb 7a 4c bf 36 5b b1 be
       0.13702656 0.24315995 -0.7987477 -0.346399
000160 22 5d 75 be 2e 05 08 3d 7a 0a b5 bf cc 08 3b 3e
       -0.23961309 0.033208065 -1.4143822 0.18265074
000170 6d 4b d1 3d 4e 68 8c 3e 69 7c ca bf ee 56 3e 3e
       0.102194645 0.27423328 -1.5819217 0.18587849
000180 ed 71 0d bf fe 33 92 3d 46 78 be be 9d 53 30 be
       -0.5525196 0.07138823 -0.37201136 -0.17219396
000190 10 f4 8d bf 67 24 c0 bf 21 6c 3d be 25 6a 01 40
       -1.1090107 -1.5011109 -0.18498279 2.0221035
0001a0 2a 96 51 be 51 76 bb be 21 70 c9 bd 2a 82 20 3f
       -0.2046744 -0.36613706 -0.0983584 0.62698615
0001b0 b6 af 10 3f 57 98 b0 be 9d 54 2c 3f 16 32 13 40
       0.56518114 -0.34491226 0.6731661 2.299932
0001c0 b9 91 bd 3e 7e f8 7f 3f ab b4 1e c0 cb 1e 05 40
       0.3702524 0.99988544 -2.479777 2.0800045
0001d0 f1 27 c8 bf 2c d9 9d bd c6 90 39 bf b5 c9 a9 3f
       -1.5637189 -0.07707438 -0.7248653 1.3264681
0001e0 4a a0 1f bf 20 de 57 bf de eb 2c be cc 21 4c bf
       -0.62353957 -0.8432331 -0.16886851 -0.7973907
0001f0 a0 76 e7 3d ff 83 9a be 9f 66 ea be 7f 6c 5c bf
       0.11301923 -0.3017883 -0.4578142 -0.8610305
000200 ed 47 85 3d 68 2d 35 bf 84 39 1c 3f 39 fa 71 bf
       0.065078594 -0.7077241 0.6102526 -0.94522434
000210 90 3d a8 be ee d1 2f bf 51 f8 89 be 76 33 f9 3e
       -0.32859468 -0.686797 -0.26947263 0.48672074
000220 09 2c a3 bf 54 e9 ff be 7a 83 46 bf 4c f2 c1 3d
       -1.2747813 -0.49982703 -0.7754437 0.094700426
000230 02 6f 0a c0 1f a2 91 3f 08 8e 96 3e 35 73 cb bf
       -2.1630254 1.13776 0.29405236 -1.5894533
000240 57 c0 7f 3f 2d e3 a7 bf 45 ca 63 bd d9 28 98 3f
       0.9990286 -1.3116204 -0.05561282 1.1887466
000250 25 7e 65 3c 03 bf 0f 3f 17 dc 97 bf 1d e2 c8 3f
       0.014007126 0.56150836 -1.1864041 1.5694004
000260 35 fb f7 be d3 02 d7 be 4e 3d cc 3f 54 8d dc bf
       -0.48433843 -0.41994342 1.5956209 -1.723063
000270 9b 67 cb 3e 26 91 b9 3f 9f 5c 03 3f 4d e4 a8 be
       0.39727482 1.4497421 0.51313204 -0.3298668
000280 b8 c4 6c 3f 8b 2a ae bf 40 58 ed 3e 78 8f f5 bf
       0.9248767 -1.3606733 0.46356392 -1.9184408
000290 dd a0 69 bf 5e 09 46 bf a6 4d 3e bf d5 9b 17 3f
       -0.9126108 -0.77358043 -0.7433723 0.59222156
0002a0 28 61 99 bd 9f 39 c9 bf 6e 5a 16 be 06 3c 18 3f
       -0.07489234 -1.572071 -0.14682934 0.5946659
0002b0 8c 69 58 be da a2 8c be ae 66 3a bf 39 8b 6a bf
       -0.21134013 -0.27467996 -0.72812927 -0.91618687
0002c0 0d 71 92 3e 10 a5 29 3e f5 75 01 bf f5 62 5f 3d
       0.28601876 0.16566873 -0.50570613 0.054537732
0002d0 7c 1b 6e 3f 3d 91 14 3f ea b0 1d bd 6d 9a 61 bf
       0.9301069 0.58034116 -0.038498797 -0.8812626
0002e0 02 71 77 3d e2 ee be be d8 43 dc bc 4d 22 ee bb
       0.060410507 -0.37291628 -0.02688782 -0.0072672726
0002f0 c0 d3 4d 3e 4b 3c 5d bf 9e e0 12 40 b8 e9 94 bf
       0.20100307 -0.86420125 2.2949595 -1.1633825
000300 6c b3 4b bf 3e b5 27 3f 0a 6b 20 3f 07 f6 53 bf
       -0.7957065 0.6551093 0.6266333 -0.8279728
000310 d0 9c 01 3f 44 01 a9 3e 24 6a 79 3f d6 06 12 c0
       0.506299 0.33008778 0.9742758 -2.2816672

fc1.bias f4 [20]
000000 ab 84 89 3e c8 ec 22 bc 45 9b db 3d d1 fe 16 bf
       0.2685903 -0.009944148 0.10722975 -0.5898257
000010 0f 59 66 be 77 16 93 be e7 ab 1a be cd 55 e8 3d
       -0.2249491 -0.28728077 -0.15104638 0.1134449
000020 01 0a f2 bd c8 d3 1d bf 9a e6 97 be da 07 05 bf
       -0.11818314 -0.6165128 -0.29668123 -0.51965106
000030 59 a0 1a bf e7 a9 0e bf 9c 49 fc bc 80 c6 ba 3d
       -0.6040092 -0.55728 -0.030796818 0.09119892
000040 ae e3 f7 be 38 87 56 bd 15 0b c7 bd fe d7 81 be
       -0.48415893 -0.05237505 -0.097189106 -0.253601

fc2.weight f4 [20, 20]
000000 21 ef 4e be f0 d3 99 be be e7 a7 3e ef 26 d3 3d
       -0.20208408 -0.30044508 0.32793993 0.1031016
000010 a2 ac ed 3e d2 07 05 3e 19 e2 20 3e 4c 48 88 3e
       0.4642077 0.12991264 0.1571125 0.26617658
000020 63 ce 44 3e eb 18 a7 bd 41 90 35 3e 02 cc a8 be
       0.19219355 -0.081590496 0.1773081 -0.32968146
000030 10 9b 5b be fc bf c5 3e b1 91 90 be 81 00 20 3e
       -0.2144587 0.38623035 -0.28236154 0.15625192
000040 a1 aa 85 be b2 66 52 3d 5f 1a 41 be 88 9c 9f be
       -0.26106742 0.05136747 -0.18857716 -0.3117411
000050 ca df 6b 3d 1c b9 73 3e 2f cc 54 be 55 34 a6 3b
       0.05758647 0.23801082 -0.20781015 0.0050721564
000060 f0 47 9e be 76 b6 5e bc b0 ca 24 be e6 e6 c1 3d
       -0.3091426 -0.013593307 -0.16092944 0.094678685
000070 38 73 73 be af eb d1 bd 84 e8 42 be 08 1f 83 3c
       -0.23774421 -0.10250031 -0.1903401 0.016006008
000080 9c 93 c1 bc 73 fd 1c 3e b4 45 ff bc 82 ba fc bd
       -0.023629956 0.15331058 -0.031161167 -0.12340261
000090 01 50 5d bc 2f 2e 3d 3e 75 13 99 bc 2f c8 a8 3e
       -0.013507844 0.18474649 -0.018686036 0.32965228
0000a0 33 73 d2 3d d4 1e b6 bd d1 41 6c bd c7 94 a0 bd
       0.10275879 -0.08892599 -0.057679955 -0.07840877
0000b0 1a 81 29 be 27 81 27 3e 94 e7 33 be f3 f5 b3 3d
       -0.16553155 0.16357861 -0.17568809 0.087871455
0000c0 23 84 2b 3d 17 4a 00 3d 53 24 cd 3d 7f 43 49 bd
       0.041874062 0.031320658 0.10016694 -0.049136635
0000d0 a2 a8 27 3e e1 3d 81 bd 12 bd 2e be 60 70 f0 3b
       0.16372922 -0.063106306 -0.17064312 0.007337615
0000e0 a7 6c 09 3e 3d 67 66 3e 65 80 c7 3d 02 af 9f bd
       0.13420354 0.2250032 0.09741286 -0.07797052
0000f0 3d 50 aa 3e 66 27 83 3e bf ad 82 be ae 76 d5 bd
       0.33264342 0.25615996 -0.25523183 -0.10423027
000100 ff 3f fd be 87 82 61 be 40 b5 b6 3b d1 2c 65 3d
       -0.49462888 -0.22022448 0.005575806 0.055950943
000110 ae 3c 8c bd 79 f7 8a 3e 20 08 64 be 93 12 9a 3d
       -0.06847511 0.27141932 -0.22268724 0.07523074
000120 ff 40 15 be 13 e7 eb bd 6d 32 8b 3e 76 bc 7d be
       -0.14575575 -0.11518683 0.2718691 -0.24778923
000130 34 5a 3c 3e 0d 1b 65 3e d1 98 42 3e 51 06 4c bd
       0.18393785 0.223736 0.19003607 -0.04981071
000140 16 9c b1 bd 4c 20 42 3e a9 66 62 bd eb 82 14 3e
       -0.08672349 0.18957633 -0.055273686 0.14503066
000150 86 df eb be 88 75 48 3d 18 45 cb bd 89 8b 7d bd
       -0.46068972 0.04894021 -0.09925288 -0.06190065
000160 7b d0 20 be 00 52 b3 3d 41 f1 59 bc 0a 41 1a 3e
       -0.15704529 0.08755875 -0.013302148 0.15063873
000170 cd 2f 81 be 92 f0 41 be dd 14 b1 3d da fa 88 bc
       -0.25231782 -0.18939427 0.086465575 -0.016721178
000180 7a d8 31 3e e5 ca 1f 3e 5d 91 ee 3c f2 36 85 3d
       0.17367736 0.15604742 0.029122049 0.065046206
000190 52 9a 8a 3e 18 0f 36 bd c0 74 3b be 2f 52 3d be
       0.27070862 -0.04444799 -0.18306255 -0.18488382
0001a0 4f d8 03 bf 48 70 88 be fd e4 02 bd cd 7d 86 be
       -0.51501936 -0.26648164 -0.03195666 -0.26267853
0001b0 fb a0 0d be 02 a4 3c 3e 94 38 89 be b7 ec e0 3e
       -0.1383094 0.18421939 -0.26800978 0.439306
0001c0 f6 ae 3f 3c d0 5e d1 bd f7 be 9f 3e 23 94 ad be
       0.011699429 -0.10223162 0.31200382 -0.33902082
0001d0 0e 4e 46 3e 5d 95 08 be d2 66 80 3e 99 bc 9b 3e
       0.19365713 -0.13338228 0.25078446 0.30417326
0001e0 a5 ee 8a be 2f 43 23 be 3e 87 c8 3e 1a 99 75 bd
       -0.27135196 -0.15943597 0.39165682 -0.059960462
0001f0 de fe f1 3e 74 a3 36 3e 0f 54 0b 3e 81 fd 2d 3e
       0.4726476 0.1783579 0.13606285 0.16991235
000200 cc 72 44 bd cd 85 21 3c 48 42 5b 3e bf d6 80 be
       -0.04796104 0.009858561 0.21412003 -0.25163838
000210 65 78 f4 bd a3 df 9d 3c 0e 0e 42 be ca ec 8c 3d
       -0.11937026 0.019271677 -0.18950674 0.068811014
000220 56 36 4f be ca f2 fd 3c b3 35 27 be 95 38 2d 3d
       -0.20235571 0.03099956 -0.16329078 0.04229029
000230 8c d5 18 3e 16 9a cb 3d 9e 52 76 bd dd 68 f0 3a
       0.14925212 0.09941499 -0.060137384 0.0018341799
000240 bd 3d df be 52 1e 40 bd 1a 37 af be f9 48 4a bd
       -0.4360179 -0.046903916 -0.34221727 -0.049386
000250 b3 12 7f 3d ac fe 3b 3d 3b 66 45 3d 43 46 c6 3c
       0.062273692 0.04589717 0.048193198 0.024203425
000260 9e 30 95 3c 9e d5 0f 3d 45 34 98 bd 16 18 fb 3d
       0.018211659 0.03511583 -0.074318446 0.122604534
000270 27 13 62 3e bd bd 12 3e a1 47 ca 3d 06 67 89 3c
       0.22077619 0.14330192 0.098769434 0.016772758
000280 2f a6 db be 5f 92 cd bc e0 d9 aa 3e 2f 9e 01 be
       -0.42900226 -0.02509421 0.3336935 -0.12657999
000290 35 ce 83 3e 68 6d 88 3e ec 17 e6 bd ab ca 44 3e
       0.2574326 0.2664597 -0.112350315 0.19217937
0002a0 ba 66 06 3e ff 9f 02 be 7c 27 c8 3e 0d d6 d2 be
       0.13125125 -0.12756346 0.39092624 -0.41178933
0002b0 c9 1d 1f bc 24 a2 4c 3e 13 34 8a be c4 00 93 3e
       -0.009711691 0.19983727 -0.26992854 0.28711522
0002c0 9f d6 91 be de 1b 37 be 6a 2b bb ba ea a8 5c be
       -0.28484055 -0.17881724 -0.0014279906 -0.2154881
0002d0 92 67 9e 3d 3b 96 ae 3d 7f 20 24 be 98 d9 0e 3e
       0.07734598 0.08524748 -0.16028021 0.13950193
0002e0 c9 eb 6d 3e 55 42 ae bd 8b c6 88 bc 3e ac 58 3e
       0.23234476 -0.085087456 -0.016696235 0.21159455
0002f0 50 94 b4 3c 5a 8c 81 bd cc 30 e6 3c 77 fe 78 be
       0.022043377 -0.06325598 0.02809944 -0.2431582
000300 24 8c 51 3d 5b d1 a3 3d 52 2f 03 be 79 1f b5 3d
       0.05115904 0.07998916 -0.1281102 0.088438936
000310 c3 ff 33 be 3c a0 08 3e 56 bb 1c 3e c3 4a a7 be
       -0.17578034 0.13342375 0.15305838 -0.32674226
000320 8b 49 43 3e cc af 3f 3d 7a 33 b3 be a8 91 8f 3c
       0.19071023 0.046798512 -0.3500021 0.017525509
000330 13 38 c0 bd 23 ab d8 bd 99 33 e2 bc c0 c5 3b 3e
       -0.09385695 -0.10579517 -0.027612494 0.18337154
000340 d7 17 03 3e 88 89 e4 bc ee e7 a3 3d b5 17 51 3d
       0.12802063 -0.027897611 0.080032215 0.051048
000350 0a 71 02 3e d2 9b 97 3c ff 9a 1b 3e f9 41 dd bd
       0.12738433 0.018506918 0.15195845 -0.10803599
000360 fd 98 d3 3d 63 b8 88 3e f1 40 18 3e d8 40 63 be
       0.103319146 0.26703176 0.14868523 -0.22192705
000370 dd 15 6f be 79 a2 52 be 9d 36 87 3e 43 7e 03 be
       -0.23348184 -0.20569791 0.26408854 -0.12841134
000380 a3 be 91 3e 80 5f 52 3e 29 ac 26 bd a2 b1 93 3e
       0.28465757 0.20544243 -0.04069153 0.2884646
000390 08 6c 81 3e 03 26 fe b9 4c b6 b6 3c a5 7d 36 be
       0.25277734 -0.00048474976 0.022303723 -0.17821367
0003a0 d7 71 82 bc 42 93 02 be de 26 3a be 3f f7 8a 3d
       -0.015923424 -0.12751487 -0.18178889 0.0678544
0003b0 c5 40 10 be 40 e7 9c be 1d c5 e9 bd 5e b3 9b 3d
       -0.14087208 -0.3064518 -0.114145495 0.07602571
0003c0 00 fc 44 bd 7a 4b 93 be 25 44 1c 3d 6a 6b 34 be
       -0.04809189 -0.28768522 0.038150925 -0.176191
0003d0 2e 63 00 3f c2 15 2b 3e 80 eb 32 3e b7 80 ea 3d
       0.50151336 0.16707519 0.17472649 0.11450332
0003e0 ac 5c 8c 3e c6 24 33 be 6d b1 6e 3e 6e 51 84 be
       0.27414453 -0.17494497 0.2330987 -0.25843376
0003f0 0e 9a a3 3d e7 27 4c 3e 61 20 b7 bd d5 f3 62 bc
       0.07988368 0.19937097 -0.08941723 -0.013852079

fc2.bias f4 [20]
000000 e1 9e f3 bd 9c 1d 4e 3e 16 7d e2 3c e7 02 4b 3c
       -0.11895538 0.20128483 0.027647536 0.012390829
000010 41 05 01 3e 29 63 4b 3e fe 29 57 be 5f cc 97 3d
       0.1259966 0.19862045 -0.21012112 0.074120276
000020 59 86 84 3d e0 34 81 bd 4e 66 12 be ea 83 38 3b
       0.06470937 -0.06308913 -0.14296839 0.0028154799
000030 e0 29 ac bd fd 9c 01 3e 27 1b 3d 3e 2d 5f 34 be
       -0.084064245 0.12657543 0.18467389 -0.17614432
000040 0a a8 10 3e cf e2 97 3d 75 14 39 be c6 f4 1a 3e
       0.14126602 0.07416307 -0.1807421 0.15132436

fc3.weight f4 [20, 20]
000000 e1 7e c2 3e 2b 9c 8c bd 76 33 e7 3c 82 ec b5 bd
       0.37987426 -0.06865724 0.02822278 -0.08883001
000010 e8 fc 11 3e 70 5c fe bd fc ee aa 3e f7 b7 54 be
       0.14256632 -0.12419975 0.33385456 -0.20773302
000020 7b 7a 45 3e e1 0a 57 bd c6 ad 41 3e 1b 90 9b 3e
       0.19285004 -0.05250061 0.18913946 0.3038338
000030 78 2b 65 3d be 5a bf 3d 99 66 13 3d 20 fd 95 3c
       0.05594966 0.093434796 0.035986517 0.018309176
000040 98 66 6b 3e 87 f8 2a be ea e0 07 bd c9 aa d0 bd
       0.22988355 -0.16696368 -0.03317348 -0.10188825
000050 24 10 ab be 1f 75 06 3c 67 98 11 be 4f 1b 6d 3e
       -0.33410752 0.008206635 -0.14218293 0.23154949
000060 38 91 43 bc 10 71 b4 3e d3 05 86 3d 53 20 28 be
       -0.011936478 0.3524251 0.0654408 -0.1641858
000070 9e 59 f0 be 74 0e 46 bd a6 04 9c 3e 8a 73 40 3e
       -0.46943372 -0.048353627 0.30472296 0.18794075
000080 4d 6b 61 3d a1 b9 3c 3d f8 12 9f be bd 02 78 ba
       0.05503397 0.046075467 -0.3106916 -0.0009460857
000090 a5 a9 04 bd 5f 09 10 bd ac fe d9 bd 0a ff 7c be
       -0.032388348 -0.035165187 -0.10644278 -0.24706665
0000a0 f8 cd cb 3e b1 c6 96 3d 16 66 00 be e6 3d ae be
       0.3980558 0.07362116 -0.12538943 -0.340316
0000b0 46 cc 87 be 0f 35 d8 be 4c 94 5a 3e 0e 13 6a be
       -0.26523036 -0.4222798 0.21345633 -0.22858831
0000c0 d4 83 04 3f ae 70 38 be 49 f6 f4 3c a8 31 d0 3d
       0.51763654 -0.18011734 0.029902594 0.10165721
0000d0 7f 46 2d 3e 62 39 4e be df 68 a6 be 00 7d 60 be
       0.16921423 -0.20139077 -0.32501885 -0.21922684
0000e0 af 6a ad 3e ba 98 3d be 61 db 3d be 82 ce 3f be
       0.33870456 -0.18515292 -0.18540718 -0.1873112
0000f0 24 94 7e 3e 57 f7 06 3e d0 16 d2 3d e3 6b 42 be
       0.24861199 0.1318029 0.102582574 -0.18986468
000100 2d b1 56 be e3 96 78 bb d2 5c 4a 3e 2c ac 6a be
       -0.20966025 -0.0037931732 0.1976197 -0.22917241
000110 db 88 f8 3e 22 b0 9a bc c5 3f fa bd 2e b1 43 3e
       0.48541912 -0.018882815 -0.12219194 0.19110557
000120 52 66 e8 bd 56 a1 a4 bd a3 d2 74 be d7 78 55 3e
       -0.11347641 -0.08038585 -0.23908477 0.20846878
000130 70 2e 2f 3e d0 b8 0f 3e f9 0e 1b be 11 50 ab 3d
       0.17107558 0.14035344 -0.1514243 0.08364881
000140 68 a9 11 3f 4b 65 6e be a5 b0 ff bd c8 47 98 bd
       0.5689912 -0.23280828 -0.12484864 -0.07435566
000150 a1 97 f0 bd cf 8b a4 be bf b5 0e 3e 74 a2 23 3d
       -0.11747671 -0.32137915 0.13936518 0.03994985
000160 ac 0d d3 3e c0 22 72 bc 43 fe 5c be 80 f2 87 3e
       0.41221368 -0.014778793 -0.21581368 0.265522
000170 dd eb 88 3e 03 8e 58 bd bb 4e 75 bd e0 00 3d 3e
       0.2674245 -0.052869808 -0.059889536 0.18457365
000180 63 8d de 3e 44 4e 0e bd 85 c9 eb bd aa ba 04 be
       0.43467245 -0.03474261 -0.11513046 -0.12961832
000190 dd 66 0a bf 9f c9 3d 3d 53 22 2b bd 43 a0 8a 3e
       -0.54063207 0.04633486 -0.04178078 0.27075395
0001a0 49 af 17 be e8 dc e6 3e 58 45 88 bd da ca 04 3e
       -0.1481296 0.45090413 -0.06653851 0.12968007
0001b0 f6 34 03 bf 81 bf f7 3d 2e 65 34 bc 5c d9 1c 3d
       -0.51252687 0.12097073 -0.011010451 0.038293228
0001c0 f5 5c 39 bb e9 98 47 bd 08 29 8a 3e f3 4e 04 3e
       -0.0028284166 -0.04872981 0.2698443 0.12920742
0001d0 8a fb 94 be 4a 7a 0b 3e 85 73 ce 3d 4d 8b 90 3d
       -0.2909816 0.13620868 0.10080627 0.070578195
0001e0 45 0c 0b 3f 7d 4d 31 be 26 8e ce bc 39 41 4e be
       0.54315597 -0.17314716 -0.025214266 -0.20142068
0001f0 cd 9a 8e bd af af c4 be 43 9a 1c bd 91 b5 7d be
       -0.0696312 -0.38415286 -0.038233053 -0.24776293
000200 e3 04 bf 3e 49 43 0c 3e d1 c3 72 be e1 6d 62 3e
       0.37308416 0.13697542 -0.2370751 0.22112228
000210 a1 6c b2 3e 7e 48 1e be 58 f8 36 3d 55 40 bf bd
       0.34848502 -0.15457341 0.044670433 -0.09338442
000220 e9 7c a8 3d cd 33 60 3e 1f c9 94 3d 64 c6 2e be
       0.0822695 0.2189476 0.07264923 -0.17067868
000230 d3 c0 be 3e 02 4d 15 be a9 4c 02 3e 87 6e 72 bd
       0.37256488 -0.14580157 0.12724556 -0.05918744
000240 40 bd 08 be 59 fd d5 bd 61 58 50 3e 1c d4 61 bc
       -0.13353443 -0.10448713 0.20346214 -0.013783481
000250 c1 d7 6c 3e 99 38 ea 3d e5 fb e7 bc b6 de 79 3d
       0.23129179 0.114365764 -0.028318355 0.06100341
000260 df 1a 46 3d e5 5e 5d be f0 16 7a be 07 72 68 bd
       0.04836547 -0.2161823 -0.24422812 -0.05674937
000270 8b 58 92 3e 41 76 c5 3d 9b 04 8d bd 6d 70 29 3d
       0.28583178 0.09641696 -0.06885644 0.041366983
000280 0f 09 16 3f d1 af 5d be 34 e5 8d bd b0 7b 6c be
       0.5860757 -0.216491 -0.06928483 -0.23094058
000290 61 24 c9 3c c0 40 d4 be 25 dd df bd d1 c9 bf bd
       0.02455348 -0.4145565 -0.10930852 -0.09364665
0002a0 31 a0 28 3f 5a 8c 1f 3e 9a 89 13 3e 91 35 15 3e
       0.6586943 0.15580884 0.1440796 0.14571215
0002b0 cb 73 5d 3e 03 f1 38 be b5 93 35 bd fe 0f 43 be
       0.21626203 -0.18060689 -0.044330318 -0.1904907
0002c0 24 d5 9c 3e 51 94 8d 3d 29 c3 18 3d 2e 14 10 be
       0.30631363 0.06913055 0.037295494 -0.14070198
0002d0 24 9f bf 3e a5 d2 0d be 0c 46 a8 3d eb ad eb bb
       0.37426102 -0.13849886 0.082164854 -0.0071923635
0002e0 5e 70 90 bd 9c 61 45 be 66 d4 62 3d 00 d1 19 3d
       -0.07052682 -0.19275516 0.05537834 0.037552834
0002f0 00 59 15 3f 0f 07 d3 bd 0b 1f 5f 3d 1e 40 46 bd
       0.5833893 -0.10304081 0.054472964 -0.04840099
000300 57 43 51 3e 32 fd 7c bd 3f cc 8e be 49 c0 d2 bc
       0.20435844 -0.061764903 -0.27890202 -0.025726454
000310 f6 d7 87 3e 7e 14 e1 bc 05 1f 34 3e bd cf 0c be
       0.26531953 -0.027475592 0.17589958 -0.13751121
000320 18 8f 0f 3f fb ab 2a be 70 b8 b3 bc 53 d7 86 be
       0.5607772 -0.16667168 -0.021938533 -0.26336154
000330 fb 5c 07 be 79 ec fa be 2c 4b 9c 3e 7b 9a 50 be
       -0.13219063 -0.4900854 0.30526102 -0.2037143
000340 10 c2 4d 3f 6e f2 f1 3d 7d 41 f3 3d 65 37 a9 3e
       0.8037424 0.11813818 0.11877725 0.33050075
000350 d0 ae ac 3e d3 9d fe bd b8 50 9e be 6c c7 54 be
       0.3372712 -0.12432446 -0.3092096 -0.20779198
000360 94 78 26 3e 7c fc 32 be eb ce 66 bd ec bc 54 3d
       0.16256934 -0.17479128 -0.056349676 0.051937982
000370 8d 20 f2 3e 2c 60 33 be a2 e6 1a be 68 d4 94 3d
       0.4729046 -0.17517155 -0.15127042 0.07267076
000380 51 1c c2 3d d2 72 3a bd 78 4e 47 3d 22 4e bc bd
       0.09478057 -0.045519657 0.048658818 -0.0919459
000390 54 2d ea 3e 54 4f 10 be 4b 32 d8 bb 75 fc 9f 3c
       0.45737708 -0.14092761 -0.0065977923 0.01952956
0003a0 83 3c 37 3e 08 01 1a 3d 79 61 ad bd 42 fd 10 3e
       0.17894177 0.03759864 -0.08465857 0.1415911
0003b0 71 76 a8 3e e1 89 86 3d 3f 7d 21 3d ac 17 1f 3e
       0.32902864 0.06569267 0.039426085 0.15536374
0003c0 f8 6d e6 3e 02 4c b6 3c 3d 45 92 3d 7b c6 18 bd
       0.45005774 0.02225304 0.071421124 -0.03729866
0003d0 84 ff 39 3d c5 a8 29 be fd d0 0f 3e 1f 64 02 3d
       0.045409694 -0.16568287 0.14044566 0.031833764
0003e0 b0 a3 18 3f ee b8 9f bd 52 fa e1 bd e5 32 82 3e
       0.5962477 -0.077989444 -0.11034073 0.25429454
0003f0 c0 fb 39 bb e9 7b 0c be 46 59 b4 be 43 25 c2 bd
       -0.0028378814 -0.13719143 -0.3522436 -0.09479763

fc3.bias f4 [20]
000000 2b a1 a4 bc 02 4f 21 bc 82 9d 60 be aa 6a a2 3d
       -0.020096382 -0.009845497 -0.21935084 0.07930501
000010 31 25 0c be c5 55 eb bc 4c c3 dc 3d e3 3a ba 3c
       -0.13686062 -0.028727422 0.107794374 0.022733158
000020 d8 c4 21 3e d5 d7 c6 bc 60 0f bf bd c1 39 36 bd
       0.15797746 -0.024272839 -0.093291044 -0.044488672
000030 fd 07 80 bd 3a d0 67 3d 7b 54 23 bd 8e 0d 9c 3d
       -0.06251524 0.056595065 -0.03987549 0.07619773
000040 8f f0 a2 bc 38 a6 79 bd 01 49 8b bc b7 20 d2 3b
       -0.019890098 -0.060949534 -0.017002584 0.0064125913

fc4.weight f4 [20, 20]
000000 55 af 28 bc be 7e 02 bd a0 c0 60 3e 82 0d af bb
       -0.010295709 -0.031859152 0.2194848 -0.0053421864
000010 1b 3e ad bd 82 3b 66 bd e0 4e 66 bd 35 e6 bc 3d
       -0.08459111 -0.056209095 -0.056227565 0.09223596
000020 52 b5 9c bc 96 19 da bc a1 bf 53 bc 1f 50 ce 3c
       -0.019129429 -0.026623528 -0.012924106 0.02518469
000030 4f f6 2b be 62 1e f2 bd 80 d8 ae bc 46 38 08 be
       -0.16793178 -0.11822201 -0.02134347 -0.13302717
000040 5a a1 c8 bb bd 6f 32 bd 4e 8a 07 be ee 93 b5 3d
       -0.00612275 -0.043563593 -0.13236353 0.08866106
000050 47 d4 1b be 87 de a0 bc 76 05 83 3d 74 f4 4c be
       -0.15217696 -0.01963736 0.06397526 -0.20015126
000060 a8 c8 c3 3d a7 cf 28 3e e5 39 08 bd e1 3a 28 be
       0.095597565 0.16485463 -0.033258338 -0.1642871
000070 ef df 36 3e ab 99 0f 3e 48 96 7f 3d e4 d7 91 3d
       0.17858861 0.14023463 0.06239918 0.07121256
000080 65 76 0c be 46 95 14 3e 3e 7c 4a 3e 70 72 b2 bc
       -0.13717039 0.14510068 0.19773957 -0.021783084
000090 e5 cc 3e be 34 e6 16 bd dd 6d 00 3e eb 50 b8 3d
       -0.18632849 -0.036840633 0.1254191 0.08999809
0000a0 e0 8b 12 3d 5e d3 a5 3d dd 8d fe 3d ea ac 06 bd
       0.035777926 0.08096956 0.12429402 -0.032879747
0000b0 37 44 61 be ff df 67 3e fe 7d 2a be 79 68 48 be
       -0.21998678 0.22644041 -0.16649625 -0.19571103
0000c0 2d 71 9a 3d 00 cd 83 be ee 80 44 be e4 ab 08 be
       0.07541118 -0.2574234 -0.19189808 -0.13346821
0000d0 49 95 08 3d 36 1c 10 3e 73 8b 4b be f3 71 03 be
       0.033345494 0.14073262 -0.19877414 -0.12836437
0000e0 41 0b 35 3e 7f 95 7f be 96 ed 4d bd 36 59 c1 3e
       0.17680074 -0.24959372 -0.050275408 0.37763375
0000f0 b2 b6 77 3e 67 e2 34 3e 16 88 3c 3e 7e 60 fd bb
       0.24190786 0.1766449 0.18411288 -0.00773245
000100 b5 69 95 bd a0 ca 41 bd ad 6d 86 3d 5e 96 7f be
       -0.07295553 -0.04731238 0.06563888 -0.24959704
000110 83 44 10 be 76 8f ff bd f6 3b 04 be 55 b1 f1 bd
       -0.14088635 -0.12478535 -0.12913498 -0.118014015
000120 bb 30 c2 3d 98 ad 0e bb a0 06 91 3d ed 34 75 be
       0.09481951 -0.002177095 0.07081342 -0.23945971
000130 89 32 6d 3d 34 20 ac 3c 99 8f 38 3e a0 1a 49 3e
       0.057909522 0.02101145 0.18023528 0.19639063
000140 81 b4 f9 3d 44 1c 2e 3c 46 18 89 3e 2f 70 d2 bd
       0.121926315 0.010626856 0.26776332 -0.102753036
000150 06 6c 9c 3e c0 a5 60 bb 4e f3 ae 3d 86 54 c5 3d
       0.30551165 -0.0034278482 0.085425004 0.09635262
000160 96 56 71 bc 54 80 db bd 22 ef 8f bd 9a eb 2b be
       -0.014730116 -0.10717836 -0.07028033 -0.16789094
000170 37 57 71 3d a7 97 6a bc 1c 64 58 3b b8 7c e3 3d
       0.058921065 -0.014318383 0.0033018654 0.111077726
000180 28 c2 b2 3c 0f 5c 65 3e 76 24 a0 3e c4 11 c2 bd
       0.021821097 0.22398399 0.31277817 -0.09476045
000190 58 2b 3f 3e 2b 20 2a be 80 83 86 3d 5f dc 67 bd
       0.18668878 -0.16613834 0.065680504 -0.056606647
0001a0 20 86 0f be 76 bf 0d 3e 06 fb 2d 3e f2 f1 36 3e
       -0.14016008 0.13842568 0.16990289 0.17865732
0001b0 7f 3b b8 3d 60 d9 21 bb 50 a4 ac bd 7c 72 87 bd
       0.08995723 -0.0024696216 -0.084297776 -0.06613633
0001c0 44 e1 14 3e e6 e8 eb 3d db ec bb 3c fc e6 fb bd
       0.14539057 0.11519031 0.02294009 -0.12299916
0001d0 ee 40 26 be f5 11 c6 bd cb ad 8a 3e 27 05 91 be
       -0.16235706 -0.09671394 0.2708572 -0.28324243
0001e0 a7 95 05 bd 12 9d f0 bd 1e 86 d6 3d 97 52 f1 bc
       -0.032613423 -0.11748709 0.104747996 -0.029458327
0001f0 ff 4c d9 3d c6 c2 8d 3e da 7e 7a bd ec cb ea bd
       0.10610389 0.27687663 -0.06115613 -0.11464676
000200 90 13 0b bd 27 50 99 3e 87 da 28 be 32 bf 31 bd
       -0.033954203 0.29943964 -0.16489612 -0.04339523
000210 3b 6b fc 3c 8b a3 07 be 52 1e 4e bd a3 1c f7 3d
       0.03081285 -0.1324598 -0.050321884 0.12066009
000220 c2 6f 83 3d dd 9c 33 3d e8 cf a0 3d de 94 cc 3c
       0.064178005 0.04385077 0.07852155 0.02497333
000230 f2 22 fc bd 23 c2 d5 3d 2d e9 ca 3d a7 be c7 bd
       -0.12311353 0.10437419 0.09907756 -0.09753161
000240 0a ce d5 3c 32 63 59 3e be 21 1d bd be 38 4f bd
       0.026099224 0.21229246 -0.038362257 -0.050591223
000250 e1 b8 33 be 73 d8 36 3e a8 e6 87 3d 85 ab 4a 3d
       -0.17550994 0.17856006 0.06635791 0.04947998
000260 55 41 3b bd 41 db 7c 3d d6 ce 89 3c 99 c3 b9 bd
       -0.045716602 0.061732534 0.01682226 -0.090705104
000270 f6 59 8b bd 34 70 9e 3c 8a 6f ec bd 1a 09 16 be
       -0.06804268 0.019340612 -0.11544712 -0.1465191
000280 af 19 a5 3b 0f 30 34 3e 52 92 2c be 5c 0a 90 3d
       0.005038462 0.17596458 -0.16852692 0.07033226
000290 2a 85 54 3d 70 d3 97 bd 6c e3 9b be f2 09 19 be
       0.051884808 -0.074133754 -0.30446947 -0.149452
0002a0 89 67 7d be 69 68 b8 bd 9f f2 c4 be b0 bf 07 3d
       -0.24746527 -0.0900429 -0.38466355 0.03314179
0002b0 e3 d2 65 be 79 28 e8 3e 1b fd 9a be 49 4a 6f 3e
       -0.22443728 0.45343378 -0.3027123 0.23368181
0002c0 f2 53 4a be ed b1 b9 be 6a 59 06 bf 96 56 1c 3f
       -0.19758585 -0.3626856 -0.52480185 0.6106962
0002d0 49 d6 11 be 8f 99 11 be 56 3a a4 3e 5f 65 f1 bc
       -0.142419 -0.14218734 0.32075757 -0.029467283
0002e0 ce 81 28 3e 92 60 25 be e9 ca 53 3e 16 3c 55 3d
       0.16455767 -0.1615012 0.20682873 0.052059256
0002f0 ce b3 40 3e 6b b4 09 3e 25 02 37 bd 56 bc 19 be
       0.1881859 0.1344773 -0.04467978 -0.1501325
000300 46 c6 12 3e 23 06 fa bc 08 8c 85 3e 60 e5 11 be
       0.14333448 -0.030520504 0.26083398 -0.14247656
000310 05 dc f9 bd 2d 66 67 3d 74 e3 30 3e 17 3f 8e be
       -0.122001685 0.056493927 0.17274266 -0.2778251
000320 95 8c 2d 3e 64 43 4b 3e e2 b9 10 be 48 ff 0c be
       0.16948159 0.19849926 -0.14133409 -0.13769257
000330 a4 43 74 bd 93 d5 78 3d ce 54 8a bd b7 8a 22 be
       -0.05963482 0.060750555 -0.067544565 -0.15873228
000340 0c d9 0b 3d 31 8a 0f ba 1f da 38 bd 26 ab 34 be
       0.03414254 -0.0005475609 -0.04512989 -0.17643413
000350 0b 3e 7d 3e 6e 2e 12 3e 31 15 a7 bb ca f6 23 be
       0.24730699 0.14275524 -0.0050989618 -0.16012111
000360 fb 6f 3e 3e 87 f8 5c 3e f3 05 a5 3d 1c d1 7d bd
       0.18597405 0.2157918 0.08057775 -0.061967
000370 92 c4 f4 bc 8f ae 24 3e 1c 89 2d 3e 4c 91 5b ba
       -0.029878888 0.16082214 0.16946834 -0.0008375838
000380 39 20 38 3e 67 a6 b0 bd 51 5a 33 3e 87 51 ff 3c
       0.17981042 -0.08625489 0.17514922 0.031166805
000390 81 a5 02 be c0 6f 59 3e e1 d9 54 3e f0 e3 45 3e
       -0.12758447 0.21234035 0.20786239 0.19325233
0003a0 ac 92 12 be 6c d1 f3 bd 56 84 9f 3e 3e 25 46 3c
       -0.14313763 -0.119051784 0.31155652 0.01209384
0003b0 cf 15 03 3e 20 0f 85 3e a8 2e 0a 3e 19 c8 84 be
       0.12801288 0.25988102 0.1349436 -0.25933912
0003c0 fb db 2a 3e 33 16 ca 3d 25 70 1f 3e ea 03 03 be
       0.16685478 0.098675154 0.15570123 -0.12794462
0003d0 a9 3c e5 3d f4 bf 4f 3e 9c b5 48 3e e3 75 cc bd
       0.11193211 0.20288068 0.19600528 -0.099834226
0003e0 de 9e 06 3e 81 16 a2 3d cb b3 48 bd 50 3d 8b be
       0.1314654 0.079144485 -0.04899959 -0.27195215
0003f0 98 47 eb bd 19 ae 4d be 8e 30 30 3d bc 74 78 3d
       -0.11488265 -0.20085944 0.043015055 0.0606582

fc4.bias f4 [20]
000000 8e 2f 2a 3d f2 08 f7 3c 3a cd 8f 3d be 88 88 3d
       0.041549258 0.030155633 0.07021566 0.066667065
000010 16 44 b4 3d 2a 4d 27 bd 9f f2 3c 3d 1b 4f af 3d
       0.08802049 -0.040845074 0.04612982 0.0856001
000020 49 68 59 3e b8 4d 33 3d 32 74 91 3a 3a 2a e0 3d
       0.21231188 0.04377529 0.0011097251 0.10945554
000030 fb c7 25 3c 9b b7 9f 3c fa bf d1 3c e2 f2 07 be
       0.01011848 0.01949673 0.025604237 -0.13276246
000040 ca a9 bb 3d 85 61 b8 3c 5c 6c 40 3c ca a8 e1 bd
       0.09163244 0.022507438 0.011744585 -0.11018522

fc5.weight f4 [1, 20]
000000 c1 e6 79 3a e0 69 f3 b9 ca 57 87 3d 9d 5b 68 39
       0.0009532981 -0.00046427455 0.06608541 0.00022159373
000010 13 8e 17 bd 31 87 9a bc bc 5a 5f 3a 20 8b 3d 3b
       -0.037000727 -0.018863292 0.00085202954 0.0028922036
000020 33 c8 3b 3e 5a 28 c9 bd 5b a0 31 ba 54 fa 91 bd
       0.18338089 -0.098221496 -0.0006775909 -0.071278244
000030 03 6f e0 bb 3d c8 6f 3e db 86 60 bd e4 2d ed 3d
       -0.006849171 0.23416229 -0.05481611 0.115810186
000040 5b cc 11 3a 11 40 79 3e 38 7a 9c ba 61 a4 a8 3d
       0.00055617624 0.24340846 -0.001193828 0.08234478
