german_model.pt (torch_old, 7607 bytes, 9 tensors)

fc1.weight f4 [20, 11]
0	0xbf8c6a46	-1.0969932
1	0xbf86c7fd	-1.0529782
2	0xc0035d7e	-2.0525813
3	0x3f617df0	0.8808279
4	0x3d8a0ce0	0.06740737
5	0xc0d66ea8	-6.701008
6	0x3f382e75	0.7194589
7	0x401ec0f2	2.4805264
8	0xbed312c7	-0.41225263
9	0x3f9e7ee2	1.2382472
10	0x3fa2a779	1.2707359
11	0xbf173a18	-0.5907302
12	0xbed9eb8e	-0.42562526
13	0xbf16d338	-0.58916044
14	0xbee0eb0b	-0.43929324
15	0x3e5e20e6	0.21692237
16	0xbe2a79e6	-0.16648063
17	0xbf1a9985	-0.603905
18	0x3eba03f2	0.36331135
19	0xbeb85b20	-0.36007023
20	0xbe69f628	-0.22847807
21	0xbed9cc63	-0.42538747
22	0x3e17add3	0.14812402
23	0xbf85f5e9	-1.0465671
24	0x3f580dcd	0.8439606
25	0x3d070ae4	0.03296937
26	0xbfd08225	-1.6289717
27	0xbf2081ed	-0.6269825
28	0xbe62d6f6	-0.22152314
29	0xbf1021cd	-0.56301576
30	0xbe2c49ef	-0.16825078
31	0xbf055ee2	-0.52097905
32	0x3e9436b1	0.28947976
33	0xbf84fd49	-1.0389796
34	0xbe0d6bf5	-0.13810714
35	0xbf380808	-0.71887255
36	0xbe4c6f3e	-0.1996431
37	0x3f06c10d	0.5263832
38	0xc070f451	-3.764912
39	0xbf0e7cd9	-0.5565925
40	0x3ee13444	0.43985188
41	0xbdc765fd	-0.097362496
42	0xbf808a0d	-1.004213
43	0x3fc8fa48	1.570138
44	0x3f94f87f	1.1638335
45	0x3f57b73f	0.84263986
46	0xbf5c0575	-0.85945827
47	0x3ec0a2c3	0.37624177
48	0xbd274f91	-0.040847365
49	0x4096af5d	4.7089067
50	0x3dda2d5a	0.106531814
51	0xbd8ceff5	-0.06881706
52	0xbea96190	-0.33082247
53	0x3ee8e2f7	0.4548566
54	0x40002811	2.0024455
55	0x3ecd899c	0.4014405
56	0xbf0f2bc1	-0.5592614
57	0xbf957bec	-1.1678443
58	0xbf8942b7	-1.0723485
59	0x3f54eed2	0.8317691
60	0xbf206a5d	-0.626623
61	0xbedae276	-0.427509
62	0x3faa8c84	1.3324132
63	0xbf5753e8	-0.84112406
64	0x3d0627b3	0.032752704
65	0x3e496cd4	0.19670421
66	0x3f439c3a	0.7641026
67	0x3fb42055	1.4072367
68	0xbe669c00	-0.22520447
69	0xbf028cce	-0.509961
70	0x3f9f4008	1.2441416
71	0x3fa75437	1.3072575
72	0xbe729972	-0.23691347
73	0xbf348324	-0.70512605
74	0x3e88e6b2	0.26738507
75	0xbf5c5c18	-0.86078024
76	0x4085dd9a	4.183301
77	0xbd2b9045	-0.041885633
78	0xbf96dfbc	-1.1787028
79	0xc0012920	-2.018135
80	0xbec70f19	-0.38878706
81	0xbf93064e	-1.1486299
82	0xbfd800dc	-1.6875262
83	0xbf176b40	-0.59148026
84	0x3ecf26b6	0.40459222
85	0xbf933543	-1.1500629
86	0x3ddfbb2a	0.109243706
87	0xbf214bf4	-0.6300652
88	0xbf70e62e	-0.94101226
89	0xbf742871	-0.9537421
90	0xbf2eb29f	-0.68241304
91	0xbe5f234c	-0.21790808
92	0xbf9fcccc	-1.2484374
93	0xc01e5927	-2.4741914
94	0xbe9553e5	-0.2916557
95	0xbf7ee59a	-0.99569094
96	0xbf81fd65	-1.0155455
97	0xbe6a497c	-0.22879595
98	0x3d775cfe	0.06039142
99	0xbd8bcd75	-0.06826297
100	0xbf01e1db	-0.50735253
101	0xbfee7ee0	-1.8632469
102	0xbf20b109	-0.62770134
103	0x3f81ded8	1.0146132
104	0x3fe56476	1.7921283
105	0xbe9c92b9	-0.3058069
106	0xbf6ae857	-0.9176077
107	0xbf47d64d	-0.7806137
108	0xbe46027f	-0.1933689
109	0x3d146991	0.03623349
110	0x3f9d3e44	1.2284627
111	0xbfc98d25	-1.5746199
112	0xc048e9ae	-3.1392627
113	0x3f38ce6e	0.72189987
114	0xbf31051e	-0.69148433
115	0xc06d1d40	-3.7049103
116	0xbcca3b53	-0.024686491
117	0x403471f3	2.819455
118	0xbfa5e29b	-1.295978
119	0x3ffdc48b	1.9825605
120	0xbf6bd862	-0.9212705
121	0xc0640553	-3.562825
122	0xc01576e6	-2.335382
123	0xc0ff2350	-7.9730606
124	0xbea6e909	-0.32599667
125	0x3f244afb	0.6417691
126	0x3eaab53f	0.33341405
127	0xbfbaa0f3	-1.4580368
128	0x4044ea1e	3.0767894
129	0x3f1cdd8c	0.61275554
130	0xbfe272d0	-1.7691288
131	0x3fcae3e6	1.5850799
132	0xbfc21a0c	-1.5164199
133	0xbf260109	-0.6484533
134	0xbefa1465	-0.48843685
135	0xbf537f43	-0.8261606
136	0x3f99e3e0	1.2022667
137	0x3fc9ff74	1.5781083
138	0xbf1fb6fe	-0.623886
139	0x3e5ec912	0.2175639
140	0x3d8c7d5c	0.06859848
141	0xbf5a52e2	-0.8528272
142	0x3f1e4f2b	0.6183955
143	0xbf3ea310	-0.74467564
144	0x3f16abe7	0.5885605
145	0xc003137c	-2.0480642
146	0x3e894a5c	0.26814544
147	0xbf97e52f	-1.1866816
148	0xbf148f8c	-0.58031535
149	0xbe8e494c	-0.27790296
150	0xbf57124e	-0.84012306
151	0xbba43ae2	-0.005011902
152	0xbf837c9c	-1.0272403
153	0x3fdf35a2	1.7438242
154	0xbf3ae973	-0.73012465
155	0xbe7a0a66	-0.24418029
156	0x3ee56b6c	0.4480852
157	0xbf1804b0	-0.5938215
158	0x3fb145f8	1.3849478
159	0x401b93fe	2.4309077
160	0xbee20616	-0.44145268
161	0xbf251e6a	-0.64499533
162	0x3eb6f1f7	0.3573148
163	0xbf5717a8	-0.8402047
164	0x3cc7cd58	0.024389908
165	0x3f56202a	0.8364283
166	0xbf130aaf	-0.57438177
167	0xbf5d62ee	-0.8647908
168	0xbf45f8a8	-0.77332544
169	0x3ecddaff	0.40206143
170	0x3facbd90	1.349535
171	0xbf0011da	-0.5002724
172	0x3e95b824	0.2924205
173	0xbe18a31d	-0.14905973
174	0xbf0fec39	-0.5621982
175	0x3ea14cf1	0.31504014
176	0xbf043dc8	-0.5165677
177	0xbf0e79f3	-0.5565483
178	0x3f3b5719	0.73179775
179	0xbf13c0e8	-0.57716227
180	0xbf1e3a28	-0.6180749
181	0x3f7e3cb3	0.9931137
182	0xbf71beae	-0.9443158
183	0x3ebb0eae	0.36534637
184	0xbf9ee858	-1.2414656
185	0xbc5aeede	-0.013362614
186	0xbf908654	-1.1290994
187	0xbfa3fe83	-1.2812046
188	0xbeaccdd3	-0.3375078
189	0xbfa10b62	-1.2581599
190	0xbf5f6a6f	-0.8727178
191	0x3ecfdb1f	0.40596864
192	0x3ee8fac5	0.45503822
193	0xbf029390	-0.5100641
194	0xbf887c97	-1.0663022
195	0xbf31351d	-0.6922167
196	0xbf1d6190	-0.61476994
197	0xbf86c010	-1.0527363
198	0xbe7384dd	-0.23781152
199	0x3f17507d	0.5910719
200	0x3fa3a6c3	1.2785267
201	0xbf1f65a9	-0.62264496
202	0x3fa1076d	1.2580391
203	0x401e28fa	2.471251
204	0xbed85439	-0.42251757
205	0xbe90bf09	-0.28270748
206	0xbe4543e3	-0.19264178
207	0x3d8744bb	0.06604906
208	0xbe70bd27	-0.23509656
209	0x3f82a2e6	1.0205963
210	0xbfa6f546	-1.3043602
211	0xbffdf10e	-1.9839189
212	0xbe4c6cf8	-0.19963443
213	0x3f9c7b31	1.2225095
214	0xbf91914f	-1.137247
215	0xbe6812d5	-0.22663434
216	0x40003033	2.0029418
217	0xbf341817	-0.7034926
218	0x3f0e7eba	0.5566212
219	0xbed9acc4	-0.42514622

fc1.bias f4 [20]
0	0x3e9de4dc	0.30838668
1	0xbe4da479	-0.20082273
2	0xbf0ef673	-0.558448
3	0xbee51f8f	-0.4475064
4	0x3dc8b26f	0.097996585
5	0xbea6ba58	-0.32564044
6	0xbde3048e	-0.11084853
7	0xbe9c7468	-0.3055756
8	0xbf2211bc	-0.6330831
9	0xbe74c122	-0.239018
10	0xbe0675d7	-0.1313089
11	0xbf5b3580	-0.8562851
12	0xbd764acf	-0.060129937
13	0xbe8dac64	-0.27670586
14	0x3dda3adb	0.10655757
15	0xbe590cd4	-0.211963
16	0xbf3ddfb2	-0.74169457
17	0xbf0131ae	-0.5046643
18	0x3d83bb5d	0.06432221
19	0xbec6b9b4	-0.38813555

fc2.weight f4 [20, 20]
0	0xbf218d00	-0.63105774
1	0xbe41aa38	-0.1891259
2	0xbe0b77e1	-0.13619949
3	0x3e09c7b8	0.13455093
4	0x3d61a033	0.05508442
5	0x3e9be1e7	0.30445787
6	0xbe7ef59f	-0.24898385
7	0x3d4d516c	0.050126478
8	0x3b934e5b	0.0044954247
9	0x3deddc0e	0.11614238
10	0x3eb60fb7	0.35558864
11	0xbedc19d7	-0.42988464
12	0x3e33891e	0.17532775
13	0x3eb838ef	0.35980937
14	0x3d1e8949	0.038705144
15	0x3cb30913	0.021854913
16	0xbdc6d0e6	-0.09707813
17	0xbc0198f3	-0.007910001
18	0x3e762b03	0.24039845
19	0x3e9bc74e	0.30425495
20	0xbec118ab	-0.37714133
21	0x3e277b52	0.16355637
22	0xbe8ba2b8	-0.27272582
23	0x3e04281f	0.1290593
24	0xbd55300a	-0.052047767
25	0x3dc8ada9	0.09798748
26	0x3d29694a	0.041360177
27	0x3cc8b13d	0.024498576
28	0x3c697d1a	0.014251018
29	0xbd816631	-0.063183196
30	0x3e1fc893	0.15603857
31	0xbed8dc78	-0.42355704
32	0x3dcaba1c	0.09898779
33	0x3e90d16d	0.2828478
34	0x3e93eec7	0.2889311
35	0x3c365a13	0.011129874
36	0x3da8e5a8	0.082469285
37	0x3e0b3afe	0.13596722
38	0x3da368ef	0.07978999
39	0xbbd0be34	-0.00637033
40	0xbeb75fc0	-0.3581524
41	0xbd00cbae	-0.031444244
42	0xbb8c6379	-0.004284319
43	0x3e8de8b0	0.2771659
44	0xbe2498f0	-0.16073966
45	0xbe27f224	-0.16400963
46	0xbda9996a	-0.082812145
47	0x3bbcde0d	0.005763775
48	0xbe3b8c80	-0.18315315
49	0xbbc909f8	-0.0061352216
50	0x3eb366e7	0.35039446
51	0x3e99c770	0.3003497
52	0x3da79998	0.081835926
53	0x3e22207b	0.15832703
54	0xbcb57efc	-0.022155277
55	0xbe2ea757	-0.17056023
56	0xbca04454	-0.019563831
57	0xbd6170b4	-0.055039123
58	0x3cb4c60e	0.022067096
59	0x3e7249e6	0.23661003
60	0xbf2ad18f	-0.6672601
61	0xbcf506c6	-0.029910456
62	0xbe8df781	-0.27727893
63	0x3ed3b8d8	0.41351962
64	0x3c7a6ef3	0.015285241
65	0xbbff0f8b	-0.0077838353
66	0xbeb434db	-0.35196576
67	0xbd7c0457	-0.061527576
68	0xbe71a08e	-0.23596403
69	0xbe47ecc0	-0.19523907
70	0x3efdd1a4	0.49574006
71	0xbea05f43	-0.3132268
72	0x3ecacc71	0.396091
73	0x3f0d80ee	0.55274856
74	0x3e2e56a9	0.17025246
75	0xbeb3ad5f	-0.3509321
76	0x3e012178	0.12610424
77	0x3d37af08	0.044844657
78	0x3e8a0294	0.26955092
79	0x3e9b421a	0.3032387
80	0x3f3c8329	0.73637635
81	0x3e1d7efb	0.1538047
82	0xbda893eb	-0.08231338
83	0xbeba65b6	-0.36405724
84	0x3e027fe1	0.12744094
85	0xbdfe0318	-0.12402934
86	0x3dad48e6	0.0846117
87	0x3e91b842	0.2846089
88	0x3c6afcab	0.014342467
89	0x3e8925e2	0.26786715
90	0xbec6bae4	-0.3881446
91	0x3f19d9fa	0.6009823
92	0xbe9aa03d	-0.30200377
93	0xbf28d38a	-0.65947783
94	0xbdbc1062	-0.09182812
95	0x3ee1bd4c	0.44089735
96	0xbe845e2b	-0.25853094
97	0x3dd36fd9	0.103240676
98	0xbe2c1a5a	-0.16806927
99	0xbdc50033	-0.096191786
100	0xbe0f56d6	-0.13997969
101	0x3e5cdef4	0.21569425
102	0xbeb349cf	-0.3501725
103	0x3cdddf5b	0.027084043
104	0x3d2c0e51	0.04200584
105	0x3d4d7e9a	0.050169565
106	0x3b939995	0.0045043924
107	0xbd834284	-0.06409171
108	0x3d0da257	0.034578647
109	0xbd070822	-0.03296674
110	0x3dec2fd2	0.115325585
111	0xbd5c2c49	-0.05375317
112	0xbe71479d	-0.23562475
113	0x3d819e68	0.06329042
114	0x3c75c829	0.015001335
115	0xbd8e52a8	-0.06949359
116	0x3dd28ce2	0.102807775
117	0x3dbbb6e6	0.091657445
118	0xbc9659f8	-0.018353447
119	0x3e6bad5d	0.23015352
120	0xbea1a0e1	-0.31568053
121	0x3e1a3f5b	0.1506323
122	0xbe9cd1f2	-0.30628926
123	0xbd4e1236	-0.050310336
124	0xbe50728d	-0.20356198
125	0x3e9301f8	0.2871244
126	0xbe8c66ea	-0.27422267
127	0xbd825070	-0.063629985
128	0x3c0b0a57	0.008486352
129	0x3daf6f2e	0.08566128
130	0x3ef19dfc	0.47190845
131	0xbeca62b8	-0.3952844
132	0x3e8a0772	0.26958805
133	0x3ee26ccd	0.44223633
134	0xbe05b1c2	-0.1305609
135	0xbeaf8da9	-0.34287766
136	0x3e201fb5	0.15637095
137	0xbd69ba10	-0.05706221
138	0x3e435fc2	0.19079497
139	0x3e4921bb	0.19641773
140	0x3ebe58fb	0.37177262
141	0xbe473a0c	-0.19455737
142	0x3e989e33	0.29808196
143	0xbe2cec29	-0.16886963
144	0x3e765a07	0.2405778
145	0xbe37817b	-0.17920487
146	0x3e7da3ca	0.24769512
147	0xbe25821e	-0.16162917
148	0xbe18c9c1	-0.14920713
149	0xbe4f5f9b	-0.20251314
150	0xbe409140	-0.18805408
151	0x3ebb12e9	0.36537865
152	0xbebf47d6	-0.37359494
153	0xbe7dbb9c	-0.24778599
154	0xbeaac5d6	-0.33354062
155	0x3cf0af2e	0.029380407
156	0x3e1784f3	0.1479681
157	0xbdb740c0	-0.08947897
158	0x3ca7a047	0.020462168
159	0xbe18808a	-0.14892784
160	0x3ea647d0	0.32476664
161	0x3dc8a59b	0.09797212
162	0x3d52c35b	0.051455837
163	0xbcb17b92	-0.021665368
164	0xbd3215eb	-0.043477934
165	0xbe52b305	-0.20576103
166	0x3e05c6c5	0.13064106
167	0xbdf12f33	-0.11776581
168	0x3b6551aa	0.0034991303
169	0x3d494e22	0.04914678
170	0xbe9c1670	-0.30485868
171	0x3ec144bb	0.3774775
172	0x3df8deeb	0.12151893
173	0xbe37ee7f	-0.17962073
174	0xbb8e2e30	-0.004339002
175	0x3e83d183	0.25745782
176	0x3d0d6ee0	0.034529567
177	0x3e92203f	0.28540227
178	0x3deb0720	0.11475968
179	0xbe5e6538	-0.217183
180	0x3f18fad5	0.5975774
181	0x3e1883aa	0.14893976
182	0x3e97b528	0.296304
183	0xbef3ca04	-0.47615063
184	0x3d0b4076	0.03399702
185	0xbea94045	-0.33056846
186	0x3e5d1450	0.2158978
187	0xbdea2fbf	-0.11434888
188	0x3e5bdb35	0.2147034
189	0x3e8f5290	0.27992678
190	0xbe29c059	-0.16577281
191	0x3f00d42f	0.50323766
192	0xbea0099e	-0.31257337
193	0xbef295fd	-0.47380057
194	0x3ae780e4	0.0017662314
195	0x3d081c35	0.033230025
196	0xbc8d46f3	-0.017245745
197	0xba2e1b00	-0.00066415966
198	0xbe215eb5	-0.15758784
199	0xbe236452	-0.15956238
200	0xbd53712f	-0.051621612
201	0x3cd5bc9d	0.026090914
202	0x3e80b3ac	0.2513708
203	0xbe0a0d30	-0.13481593
204	0x3e4a5561	0.19759132
205	0xbe6e0569	-0.23244251
206	0x3dc90d28	0.098169625
207	0xbe09e8a8	-0.13467658
208	0x3e6f079a	0.23342744
209	0x3e7e1af2	0.24814966
210	0xbe4f2a64	-0.20231014
211	0xbe8b2102	-0.2717362
212	0xbdf9b3b8	-0.12192482
213	0x3ccbfd61	0.024901094
214	0xbe57e514	-0.2108348
215	0xbdae6505	-0.08515362
216	0xbe094432	-0.1340492
217	0xbd9ecb9b	-0.077536784
218	0x3dfe3617	0.124126606
219	0xbda89a06	-0.08232503
220	0xbedbe9ce	-0.42951816
221	0x3e0c2b23	0.1368833
222	0xbea4b215	-0.32167116
223	0x3deaba16	0.11461274
224	0xbe7c83a7	-0.24659596
225	0x3dea3106	0.11435132
226	0x3ce0cbf0	0.027440995
227	0x3da1731c	0.078832835
228	0x3e1d6c16	0.15373263
229	0x3cf01f4a	0.029311795
230	0x3f0f7644	0.56039834
231	0xbefc0b7c	-0.49227512
232	0x3e888628	0.26664853
233	0x3f09e3e1	0.5386334
234	0x3e87d63c	0.26530635
235	0xbe8eda8e	-0.2790112
236	0xbd54d787	-0.051963355
237	0x39cae564	0.00038699352
238	0x3e2007d2	0.15627983
239	0x3e1afad8	0.15134752
240	0xbf0f168a	-0.55893767
241	0x3e1710c8	0.14752495
242	0x3cd85026	0.026405405
243	0x3ec63ce6	0.38718337
244	0xbeaa3961	-0.33246902
245	0x3e165486	0.1468068
246	0xbc088eaf	-0.0083348
247	0xbd571ad2	-0.052515812
248	0xbe579bb4	-0.2105549
249	0xbdde5b33	-0.108572386
250	0x3e966c1f	0.29379365
251	0xbe9e43f7	-0.30911228
252	0x3e85be12	0.26121575
253	0x3ef1caa5	0.47224918
254	0x3e3faddd	0.18718667
255	0xbea9e365	-0.331813

fc2.bias f4 [20]
0	0xbdb7f71f	-0.089826815
1	0xbd3290de	-0.043595187
2	0x3e018b12	0.12650707
3	0x3d448967	0.0479826
4	0xbe5acb9c	-0.21366733
5	0xbd6c9039	-0.05775473
6	0x3ddc33d0	0.1075207
7	0xbe3be6fd	-0.18349834
8	0xbdc30f67	-0.09524422
9	0xbe2cbad2	-0.16868141
10	0xbd1537b4	-0.036430076
11	0xbe0fddc5	-0.14049442
12	0x3e03d97d	0.12875934
13	0x3de9b50a	0.114114836
14	0xbe32ecd7	-0.1747316
15	0xbd7f1f7b	-0.06228588
16	0x3e8523fd	0.2600402
17	0x3e4c6f7d	0.19964404
18	0x3e4103fc	0.18849176
19	0x3e619d4c	0.2203266

fc3.weight f4 [20, 20]
0	0xbdd8a1c8	-0.10577732
1	0xbc0d8f95	-0.00864019
2	0x3cf9eba1	0.030507864
3	0x3e9005e7	0.28129503
4	0x3d5626c9	0.052283082
5	0xbd861b25	-0.06548146
6	0x3de6fad6	0.11278312
7	0x3dc3e293	0.095647
8	0x3e553b2e	0.20823357
9	0xbc31c4da	-0.010850156
10	0x3bc8867e	0.0061195483
11	0xbdd6704b	-0.10470637
12	0x3df23f6f	0.11828505
13	0x3d8df36c	0.06931195
14	0x3d57584e	0.05257445
15	0xbdb358be	-0.087571606
16	0xbe01b3da	-0.12666264
17	0xbe6c62c4	-0.23084551
18	0xbe201c5a	-0.15635815
19	0xbd68834b	-0.056765836
20	0x3ea346a7	0.3188984
21	0x3c3ad4ab	0.011403243
22	0xbe2c6003	-0.168335
23	0x3f1dd292	0.6164943
24	0xbf4a3131	-0.7898131
25	0xbde9f3f5	-0.11423484
26	0xbd4e22e1	-0.050326232
27	0x3dc03241	0.09384585
28	0xbe615285	-0.22004135
29	0x3ce14e42	0.027503137
30	0x3e1b54e0	0.15169096
31	0x3e9b8502	0.30374914
32	0x3e03e225	0.12879236
33	0x3dfe6b5d	0.12422822
34	0xbe152910	-0.14566445
35	0x3da6f80b	0.08152779
36	0x3ecd34b9	0.40079287
37	0x3e6fa93f	0.23404406
38	0xbe8e2e4c	-0.27769697
39	0x3d9c104b	0.07620295
40	0x3d000e13	0.031263422
41	0xbe0f98c1	-0.14023115
42	0x3d9e8917	0.077409916
43	0xbef54bd4	-0.47909415
44	0x3f1b9a79	0.6078258
45	0xbe40a85b	-0.18814223
46	0xbdb9670f	-0.0905286
47	0x3daef364	0.08542517
48	0xbd8a7924	-0.06761387
49	0x3e348de7	0.17632256
50	0x3d9cc926	0.076555535
51	0xbe8b911c	-0.27259147
52	0xbeaae2f9	-0.3337629
53	0x3dd52582	0.10407545
54	0xbd717307	-0.05894759
55	0x3e22e3cd	0.15907212
56	0xbf483dc3	-0.7821924
57	0x3da5eb1f	0.081014864
58	0xbd031c2b	-0.032009285
59	0xbea309ab	-0.31843314
60	0x3dae0a24	0.08498028
61	0x3e778403	0.24171452
62	0xbc683924	-0.01417378
63	0xbee2e500	-0.44315338
64	0x3edd21ac	0.43189752
65	0xbe1df8a1	-0.15426876
66	0xbd01e503	-0.031712543
67	0xbe69cfe1	-0.22833206
68	0x3d81ce5b	0.06338187
69	0x3e38c7ce	0.1804497
70	0x3d3582d0	0.044314206
71	0xbd87a5d5	-0.06623427
72	0x3e694f84	0.22784239
73	0x3e66980e	0.22518942
74	0x3d4f7738	0.050650805
75	0xbd766c94	-0.060162142
76	0xbea961cb	-0.33082423
77	0xbe8b0c7a	-0.27157956
78	0xbc9fcf4c	-0.019508027
79	0xbe3b6bc6	-0.18302831
80	0x3e28f346	0.16499051
81	0x3d49e557	0.04929098
82	0x3e2b243e	0.16713044
83	0x3f261308	0.6487279
84	0xbf22b886	-0.6356281
85	0x3e27532d	0.16340323
86	0x3e022a02	0.12711337
87	0xbdc9ebcb	-0.09859427
88	0x3db6139d	0.0889046
89	0xbe8b616c	-0.27222764
90	0xbe2327c2	-0.15933135
91	0xbcb435c9	-0.021998303
92	0x3eb7eb1a	0.35921556
93	0x3e811594	0.25211775
94	0xbc18f0f3	-0.0093347905
95	0xbe556c82	-0.20842174
96	0x3f2303fc	0.63677955
97	0xbe5d301d	-0.21600385
98	0xbcd78dd1	-0.02631274
99	0x3ec36db7	0.38169643
100	0x3e17ad84	0.14812285
101	0xbd235db4	-0.039884284
102	0x3cdb08e2	0.026737634
103	0x3f1a3e79	0.60251576
104	0xbe9d343c	-0.30703914
105	0x3e399f3a	0.18127146
106	0x3e184b98	0.14872587
107	0xbd0cf7c7	-0.034415986
108	0x3e3bb30c	0.1833002
109	0x3c88bc94	0.016691484
110	0xbe4e8738	-0.2016877
111	0x3e1c971a	0.15292016
112	0x3dcf0c1f	0.10109734
113	0x3a28b46f	0.0006435578
114	0x3e33aca7	0.1754633
115	0x3cdd0b12	0.026982818
116	0x3f31aa8b	0.6940085
117	0xbe567b34	-0.20945436
118	0x3cf3b670	0.029750079
119	0x3df714e2	0.1206453
120	0xbdadd71e	-0.08488296
121	0xbbc79904	-0.006091239
122	0x3de32b2f	0.11092221
123	0xbef38fbf	-0.47570607
124	0x3f5c3dab	0.860316
125	0xbbdf32b0	-0.0068114623
126	0xbe07b8c0	-0.1325407
127	0xbd07854f	-0.033086117
128	0xbdeba22a	-0.1150554
129	0x3d381236	0.044939242
130	0x3dc17877	0.09446805
131	0xbeb0ff16	-0.34569615
132	0xbec1269b	-0.37724766
133	0xbdb14431	-0.086555846
134	0x3d259c0b	0.040432017
135	0xbe09a0bc	-0.13440222
136	0xbf17b9b6	-0.5926775
137	0x3e1a5425	0.15071161
138	0x3d1f0e7b	0.03883217
139	0xbe1bc09a	-0.1521019
140	0xbc4f7f00	-0.0126645565
141	0x3c5ab62c	0.013349097
142	0x3db655f1	0.08903111
143	0x3f18caf5	0.5968469
144	0xbf599e01	-0.8500672
145	0xbd086be0	-0.033306003
146	0x3de0353c	0.10947654
147	0xbd4441ed	-0.047914434
148	0x3d0437f5	0.032279927
149	0x3db5b66e	0.08872686
150	0xbd1cffc1	-0.038329843
151	0x3dd7d95e	0.105395064
152	0x3e4099df	0.18808697
153	0xbe340448	-0.17579758
154	0xbe2959f8	-0.16538227
155	0x3d153474	0.036426976
156	0x3f4c54da	0.79816973
157	0x3e0d4018	0.13793981
158	0xbccb07d7	-0.024784012
159	0x3e999020	0.2999277
160	0x3dc763e0	0.097358465
161	0xbe541ff5	-0.20715316
162	0x3e36e1bd	0.1785955
163	0x3e7fbbcc	0.24973983
164	0xbf00134d	-0.5002945
165	0xbe0bee72	-0.13665178
166	0xbe12990d	-0.14316197
167	0x3e7a2e1b	0.2443165
168	0x3e563a3f	0.20920657
169	0x3db620a5	0.08892945
170	0x3d0d7045	0.034530897
171	0x3e2dcfd1	0.16973807
172	0x3de52bda	0.11190005
173	0xbcf21ae3	-0.029553836
174	0x3d296f4f	0.041365918
175	0xb9cb8d2e	-0.00038824364
176	0x3eeef87f	0.46673962
177	0xbcf50cb2	-0.02991328
178	0xbdb1354a	-0.08652742
179	0xbd56e81e	-0.052467458
180	0x3dbcb953	0.09215035
181	0xbe59c073	-0.2126482
182	0x3e9ee6e8	0.31035542
183	0x3dd7e506	0.1054173
184	0x3db55643	0.08854344
185	0x3b8ceb6a	0.0043005245
186	0xbe162d0a	-0.14665619
187	0x3d143787	0.036185768
188	0x3e1764b6	0.14784512
189	0xbd7b81aa	-0.061402954
190	0x3d0b8dec	0.034070894
191	0x3e3811cf	0.17975543
192	0x3e37eece	0.1796219
193	0xbd2d8ae7	-0.042368796
194	0xbe16046c	-0.14650124
195	0x3da41ff9	0.08013911
196	0x3d2ad58b	0.041707557
197	0x3e2f0c68	0.17094576
198	0xbddac314	-0.106817394
199	0xbe46a3ed	-0.1939847
200	0xbe8f36f2	-0.27971607
201	0xbd8c5f96	-0.06854169
202	0x3e939e97	0.28831932
203	0xbe25e6be	-0.16201302
204	0x3eac023e	0.3359546
205	0xbba137ed	-0.004919997
206	0xbc31790e	-0.010832084
207	0xbe494a7c	-0.1965732
208	0xbb881b39	-0.004153636
209	0x3dce47fb	0.10072323
210	0xbddb044a	-0.106941774
211	0x3e2ea9c3	0.17056946
212	0x3e884e10	0.26622057
213	0x3e4d3f68	0.20043719
214	0x3e5ce2a8	0.21570837
215	0xbb7e15c3	-0.0038770295
216	0xbf09f9a0	-0.5389652
217	0x3df212f1	0.11820019
218	0x3e49c145	0.19702633
219	0x3d9e5411	0.07730878
220	0xbd4effc7	-0.050536897
221	0x3c9517b3	0.018199777
222	0x3d77e0f0	0.06051725
223	0xbf1533b1	-0.58282
224	0x3ef4f070	0.4783969
225	0xbe1b2d02	-0.15153888
226	0x3dad6dc6	0.08468203
227	0x3dde4a47	0.10854011
228	0x3e85aa07	0.26106283
229	0x3dd1f298	0.10251349
230	0x3d1554e5	0.036457915
231	0xbee79249	-0.45228794
232	0xbebc03b3	-0.36721572
233	0xbd206030	-0.03915423
234	0x3e184384	0.14869505
235	0xbd5cdedd	-0.053923476
236	0xbed6b2a7	-0.41933176
237	0x3cf228b1	0.029560419
238	0xbc8eb649	-0.017420905
239	0xbe777223	-0.24164633
240	0xbdf92a75	-0.12166301
241	0x3dcaef21	0.099088915
242	0xb8c72e08	-9.4976334e-05
243	0x3f2c4bf8	0.6730342
244	0xbf91aeac	-1.1381431
245	0xbe349ea9	-0.17638649
246	0xbdae4ee2	-0.085111395
247	0x3e2b0959	0.16702785
248	0xbd26a676	-0.040686093
249	0xbe66d92e	-0.22543785
250	0x3e64abb8	0.2233113
251	0xbdddb0c8	-0.10824734
252	0x3d1ca3a2	0.03824199
253	0xbe340fec	-0.17584199
254	0xbda4a763	-0.08039739
255	0xb946ba1f	-0.00018952087

fc3.bias f4 [20]
0	0xbc1536c7	-0.009107298
1	0x3c57e0cd	0.013176155
2	0xbdbe82a0	-0.093022585
3	0x3d5001ca	0.050782956
4	0x3d42168d	0.047384787
5	0x3e008983	0.12552457
6	0xbd9cfc13	-0.07665267
7	0xbcc229be	-0.023701545
8	0x3d6cf966	0.057855032
9	0x3b992838	0.004673984
10	0xbd1242c9	-0.035708223
11	0xbdf6c4df	-0.12049269
12	0x3cd02951	0.025410326
13	0x3c1372dd	0.0089995535
14	0xbe65628e	-0.22400877
15	0x3e32fa62	0.17478326
16	0xbe20103b	-0.15631191
17	0x3e542463	0.20717005
18	0x3c60b0b5	0.013714005
19	0xbd83eef6	-0.064420626

fc4.weight f4 [20, 20]
0	0xbd0af6a3	-0.033926617
1	0x3dcc3838	0.099716604
2	0xbdfe2470	-0.12409294
3	0x3db42192	0.087954655
4	0x3e5edfdc	0.21765083
5	0xbe40b042	-0.18817237
6	0x3ae5731e	0.0017505621
7	0xbd51e388	-0.05124238
8	0x3d3907c0	0.045173407
9	0xbdaf1f61	-0.08550907
10	0xbd0e17be	-0.03469061
11	0xbe4e748a	-0.20161644
12	0x3dbde4de	0.092721686
13	0xbde27bdd	-0.11058781
14	0xbc9f962e	-0.019480791
15	0x3d9058b2	0.07048167
16	0xbd51733c	-0.051135287
17	0xbe003c87	-0.1252309
18	0xbd9e385c	-0.077255934
19	0xbe2a817b	-0.16650955
20	0xbe40b0db	-0.18817465
21	0x3dcf8b42	0.10133983
22	0xbecc652b	-0.39920935
23	0x3d933874	0.07188502
24	0x3e5f0ad3	0.21781473
25	0x3e578b85	0.21049316
26	0xbd5c59a0	-0.05379641
27	0x3e6fe77d	0.2342815
28	0x3c867e1b	0.016417554
29	0x3e06580f	0.13119529
30	0xbe832d63	-0.25620565
31	0xbdbca2bf	-0.09210729
32	0x3f0de83a	0.55432475
33	0x3eca193e	0.39472383
34	0xbef935b8	-0.48673797
35	0x3e81eb51	0.25374845
36	0xbeb5bad8	-0.35494113
37	0x3e501427	0.20320188
38	0x3c69ca5a	0.014269436
39	0xbef6e1d2	-0.48219162
40	0x3c48f5cf	0.012265637
41	0x3cf96d22	0.030447546
42	0xbcc94e43	-0.02457345
43	0x3e0b9424	0.1363073
44	0xbcc5a944	-0.024128564
45	0x3cf055d6	0.029337805
46	0x3e740f82	0.23834041
47	0xbede533f	-0.43422887
48	0x3d753ef8	0.059874505
49	0x3d875ea7	0.066098504
50	0x3e88e30c	0.26735723
51	0x3e94db33	0.29073486
52	0xbe93b0dc	-0.2884587
53	0xbec5bf7c	-0.38622653
54	0x3e936945	0.28791252
55	0xbd99fa48	-0.075184405
56	0x3e3c95bd	0.18416496
57	0xbdf7d341	-0.1210084
58	0x3c5e89ac	0.013582628
59	0x3e7a0ed6	0.24419722
60	0x3e119c9f	0.14219902
61	0x3dcbc7f1	0.09950245
62	0xbdcb409f	-0.09924435
63	0x3d8f70b7	0.070039205
64	0x3eb0798d	0.34467736
65	0x3ea287ef	0.31744334
66	0xbe59aef0	-0.2125814
67	0x3e8fc2b3	0.2807823
68	0xbd8add7c	-0.06780526
69	0x3e521edf	0.20519589
70	0xbdfea37e	-0.124335274
71	0xbe1b4cb2	-0.15165976
72	0x3ef00aac	0.46883142
73	0x3eb14c00	0.34628296
74	0xbebd771f	-0.37004945
75	0x3ea21db5	0.3166329
76	0xbe617fe9	-0.2202145
77	0x3ec19868	0.3781159
78	0xbe5bd849	-0.21469225
79	0xbd9759f8	-0.07390207
80	0xbd80752c	-0.06272349
81	0xbd2fbd22	-0.04290498
82	0x3e0f00d0	0.13965154
83	0x3e74e1fb	0.2391433
84	0xbe8584bd	-0.26077834
85	0xbe7a7877	-0.24460016
86	0xbdf50cc2	-0.11965324
87	0xbbaeb2ef	-0.005331389
88	0x3dc85135	0.09781114
89	0x3d539571	0.05165619
90	0xbe620c3d	-0.22074981
91	0x3d1ef907	0.03881171
92	0xbe818f26	-0.25304526
93	0xbd456ab1	-0.048197452
94	0xbd3b9409	-0.045795474
95	0x3d35f08a	0.04441885
96	0x3e3d089c	0.18460315
97	0x3cb43dc0	0.022002101
98	0x3d803e9f	0.06261944
99	0xbde412e4	-0.111364156
100	0xbe2c3d34	-0.16820222
101	0xbe39796b	-0.18112724
102	0x3cbf472b	0.023349365
103	0x3e733d7b	0.23753922
104	0xbe2b34bd	-0.16719337
105	0xbe22c64e	-0.1589596
106	0x3ec04115	0.37549654
107	0xbe736fe8	-0.23773158
108	0xbe52ee25	-0.20598657
109	0x3d17579c	0.036948785
110	0xbe25c292	-0.16187504
111	0x3d115843	0.035484564
112	0xbea2bd13	-0.31784877
113	0xbe9c72ab	-0.30556235
114	0x3e503a32	0.203347
115	0xbe147dae	-0.14501068
116	0x3e9bf6f2	0.30461842
117	0xbe084aa9	-0.1330973
118	0x3e5a3b93	0.21311788
119	0x3e9f1a08	0.31074548
120	0xbc5c7fbe	-0.0134581905
121	0x3eaba21c	0.33522117
122	0xbdaf2cf6	-0.085534975
123	0x3cc00198	0.02343826
124	0xbdcef38c	-0.10105047
125	0xbd9d78a6	-0.076890275
126	0xbcf99355	-0.030465761
127	0xbd067131	-0.03282279
128	0x3d087e17	0.033323374
129	0x3e49fd32	0.19725493
130	0xbd2b17e0	-0.041770816
131	0xbe7c98b7	-0.24667631
132	0xbe3956fa	-0.18099585
133	0xbde69378	-0.11258596
134	0xbd7ab898	-0.0612112
135	0xbcae6c91	-0.021292003
136	0x3c3d31d2	0.011547523
137	0xbd87c4ac	-0.06629309
138	0xbc89a131	-0.016800495
139	0x3ca70b94	0.020391263
140	0x3e2670f5	0.16254027
141	0xbeb68c67	-0.35653993
142	0x3e8e841a	0.2783516
143	0xbd126b1c	-0.03574668
144	0xbdbdffa1	-0.09277273
145	0xbe0101e1	-0.12598373
146	0x3ec8550c	0.39127386
147	0xbee1a20c	-0.44068944
148	0x3d325e0a	0.043546714
149	0x3de103f3	0.109870814
150	0x3df3fa57	0.11912983
151	0x3ea38b49	0.31942204
152	0xbf0a3a6a	-0.5399538
153	0xbe9d2915	-0.30695406
154	0x3ea3faf3	0.32027397
155	0xbeb32496	-0.3498885
156	0x3be55e0b	0.006999736
157	0xbea97531	-0.33097222
158	0xbd5295ce	-0.051412396
159	0x3edfa303	0.43679056
160	0xbd407613	-0.046987604
161	0x3ef10b68	0.47079015
162	0xbe59914d	-0.21246834
163	0xbe0642f8	-0.13111484
164	0x3ed91103	0.4239579
165	0x3eae4b9e	0.34042066
166	0xbeec619b	-0.46168217
167	0x3db4229a	0.08795662
168	0x3e97fd81	0.29685596
169	0xbd0e562a	-0.03475014
170	0xbe5cd52f	-0.21565698
171	0xbe7b0286	-0.24512681
172	0x3f220dfb	0.6330258
173	0x3ea8cded	0.3296961
174	0xbee8f213	-0.45497188
175	0x3d8a314a	0.067476824
176	0xbebb006d	-0.36523762
177	0x3e99fd2c	0.30075967
178	0x3e2e9dd2	0.17052391
179	0xbe5c621e	-0.21521804
180	0xbe419cc0	-0.18907452
181	0x3eb864b6	0.36014336
182	0xbea63023	-0.324586
183	0xbd5dcc63	-0.054149996
184	0x3ea06ce6	0.31333083
185	0xbde6ef87	-0.11276155
186	0xbed575ae	-0.41691345
187	0x3e7e6296	0.24842295
188	0x3e44aedc	0.19207329
189	0x3e153401	0.14570619
190	0xbdedf981	-0.11619855
191	0xbd416c16	-0.04722222
192	0x3ead10da	0.3380192
193	0x3eccefd8	0.40026736
194	0xbe3b9e3a	-0.18322077
195	0x3e6d94c3	0.2320128
196	0xbe9da062	-0.30786425
197	0xbd468636	-0.048467837
198	0xbe346d89	-0.1761991
199	0xbeeba6bc	-0.46025646
200	0x3e107b22	0.14109471
201	0x3e2a55c1	0.16634275
202	0x3d822df7	0.06356423
203	0x3e807371	0.25088075
204	0x3df71830	0.1206516
205	0xbd1fce67	-0.0390152
206	0xbdf33c9e	-0.11876796
207	0xbea83ad7	-0.3285739
208	0x3c98f237	0.018670185
209	0xbe3b3eab	-0.18285625
210	0xbd195882	-0.037437923
211	0xbd9b4694	-0.07581821
212	0xbdfc2206	-0.12311177
213	0x3dd39c98	0.10332602
214	0x3e455a37	0.19272695
215	0xbd813f1a	-0.06310864
216	0xbe62c1f9	-0.22144307
217	0x3e3956c7	0.18099509
218	0xbd9c29f4	-0.076251894
219	0x3e54ef2e	0.20794365
220	0xbd9f5827	-0.077804856
221	0xbdbb737f	-0.091528885
222	0xbd49620a	-0.049165763
223	0x3d9aea42	0.075642124
224	0xbe97d67d	-0.2965583
225	0x3db9b7c7	0.09068256
226	0x3dcc35eb	0.099712215
227	0xbd654dbb	-0.055982333
228	0xbe1b2c7c	-0.15153688
229	0xbcb3322c	-0.02187451
230	0xbe8a2ee5	-0.26988903
231	0x3e599033	0.21246414
232	0xbe1b515e	-0.15167758
233	0x3d8d7e49	0.069088526
234	0x3eb66b72	0.3562885
235	0xbe1046d1	-0.14089514
236	0x3e91f1d0	0.285048
237	0xbdab831d	-0.08374617
238	0xbdd53469	-0.10410387
239	0xbcad9cdb	-0.021192959
240	0xbd542a1a	-0.051797964
241	0x3e114b2e	0.14188835
242	0xbe01dd47	-0.12682067
243	0xbe3ba0a8	-0.18323004
244	0x3e94cf14	0.29064238
245	0x3dc95142	0.09829952
246	0xbe71466a	-0.23562017
247	0x3cb9e7eb	0.022693595
248	0xbd3b64da	-0.045750476
249	0xbd695529	-0.05696598
250	0x3e62f826	0.22164974
251	0xbe3fc7c0	-0.18728542
252	0x3ec8382e	0.39105362
253	0x3de866ed	0.113477565
254	0xbde29c7f	-0.110650055
255	0xbd34bf74	-0.044127896

fc4.bias f4 [20]
0	0x3c41933c	0.011814889
1	0x3e18310d	0.14862461
2	0x3d1cfbd7	0.03832611
3	0xbd9862c6	-0.074407145
4	0xbdab7fa2	-0.083739534
5	0xbddef4db	-0.10886546
6	0xbcf1dda1	-0.029524626
7	0xbe2cf8ec	-0.16891831
8	0x3d2a9c93	0.041653227
9	0x3e8b6db9	0.2723215
10	0xbdea8ce9	-0.11452658
11	0x3d939ab3	0.07207241
12	0x3d08ad1a	0.033368208
13	0x3cbc9c55	0.023023764
14	0xbcbc8b42	-0.023015622
15	0xbdf9d313	-0.12198462
16	0xbe462157	-0.19348656
17	0xbd812fa2	-0.06307913
18	0x3e49a8dd	0.19693322
19	0xbe5c0eec	-0.21490067

fc5.weight f4 [1, 20]
0	0xbd095d70	-0.033536375
1	0xbe936b58	-0.28792834
2	0x3dc371ea	0.09543212
3	0xbeafbb51	-0.343226
4	0x3d49ee3d	0.049299467
5	0x3e921c24	0.28537095
6	0x3a4e41e0	0.00078680925
7	0x3ece8701	0.40337375
8	0xbecc0916	-0.39850682
9	0xbe4ec6f5	-0.20193084
10	0x3c8a8e6c	0.016913615
11	0x3dd2b7fb	0.10288998
12	0xbe24c7b4	-0.16091806
13	0xbcd82895	-0.026386539
14	0xbaf267a4	-0.0018494022
15	0x3e83ea27	0.25764582
16	0x3e1d66bc	0.15371221
17	0x3e1eec9f	0.15519951
18	0xbe58bfb6	-0.21166882
19	0x3e73c10c	0.2380411
