model_race_blind.pt (torch_old, 7447 bytes, 9 tensors)

fc1.weight f4 [20, 9]
00000000: bf08 4cc0 5564 adbe ddbd b1bf 8618 423f
00000010: f31b 85bf 180b 973e e7ba 65bf 4bc7 5bbf
00000020: 29e3 4f3f 22a6 e03e e66a 4cbf 9df5 f43e
00000030: b404 313f d330 bc3e 964f 70bf 96b5 443f
00000040: fa53 083f 0824 28bf 03a8 6d3f 1792 453f
00000050: 76f9 c23e 66df ebbf a8f9 453f 2207 853f
00000060: ba33 b7bf 8af4 4a3f 540e e4bf d638 d93f
00000070: 3a84 e1be 014b 9fbe 5185 ad3e cb33 72bf
00000080: 7af7 903e a850 55bf eafe ad3d d424 6fbf
00000090: 6705 acbf 9429 29bf 0714 5a3e 775a a83e
000000a0: d01a f53d 788d 5ebe dc5d 403e 361c 21be
000000b0: 9126 b43c fcd5 14bf cc06 0cbf b301 86be
000000c0: 994e 2abf 9d7f 17bf f233 d3be b806 b1bd
000000d0: 27f0 6bbe 4d66 e2bd b09f 51bf 2781 abbc
000000e0: 1164 86bf 7d06 843e 07b4 bcbe 29cb 3a3e
000000f0: ea99 0ebf 3698 d53d 64ae f0be 6985 1ebf
00000100: 706c 8bbe 5988 efbe 16e8 28bd c5db 8c3e
00000110: c6c4 b83d 5aee dbbc 97d6 efbc c638 e1bd
00000120: dcd4 5f3f 23fe 7abf b20a b3be f9ae 2e3f
00000130: 3109 c5bf 069d 90bd 0b61 f13d c267 00bf
00000140: b279 123d 53ac e9bf e010 a63e 9f56 2cbf
00000150: 5344 89be 9e3c b23f a50e f2be f9c5 6bbf
00000160: 41e2 0b3e b24c 11bf e34b 2f3f 2fb0 8c3f
00000170: e434 f13d 1741 82bf 5d83 fbbe e134 a93e
00000180: 0a84 1e3f e290 b03e e185 adbe d3ab 42bf
00000190: 8f28 35be 33dc 233f 4152 aebf b085 703e
000001a0: 587f c83d c2e7 86bf 725a 61be 9792 c83c
000001b0: 704a 0840 4c36 cdbd 8fd1 f53f 9927 b0bf
000001c0: 2475 75bf e238 133f 1099 a73e 3a9b 613f
000001d0: 5f68 cbbf cd3a bfbf ee77 34bf e17e b0bf
000001e0: 382a b63f e624 59bf 1d3e 9bbf df4f 933f
000001f0: 62b8 033e 0ad8 0bbf aaae b7bf 431b 02bf
00000200: 22e0 68bf cb76 ed3d e9a6 efbe bec7 97be
00000210: 677e 2fbe 3050 2fbe bc69 e8be e62f 643f
00000220: 97f9 29bf 2285 e13e 963c d33e aaed ee3d
00000230: 4abd 413f 5814 9bbf 1c14 5cbf 5e98 1e3f
00000240: 8616 fabd bc8f 6b3d 2fc0 27bf 19c1 c4be
00000250: 8d3f 8c3c 2dec 47bf 8928 6e3e a9b4 2c3d
00000260: ea19 e2be e209 33bf 2eb5 d0be d946 1b3f
00000270: d00b 3dbf 6f40 0bbf 7f15 5fbf 3f4b 483f
00000280: bba3 34bf bb47 a43d e89e 61be 9dfb 8dbe
00000290: 5411 32bf 3164 80be 9e1b 89be 71a7 ac3d
000002a0: c283 ccbe fbd9 213e 3fd0 bebc cc81 25be
000002b0: fcfd f83d 6bfa 3bbf d30d 1a3f 5ac1 f73d
000002c0: b103 7fbf f33d 9fbd fa7f 4cbe 697c 21bf
-3.1880338 -0.3386561 -1.3886067 0.7581867 -1.0399154 0.2950065 -0.89738315 -0.8585097
0.81205994 0.4387675 -0.79850614 0.47843638 0.691478 0.36756 -0.9387144 0.7683958
0.5325314 -0.6567998 0.9283449 0.7717604 0.3808095 -1.8427551 0.7733407 1.0392802
-1.4312661 0.79279387 -1.7816873 1.697047 -0.44046193 -0.3111191 0.33890775 -0.9461028
0.2831381 -0.83326197 0.084958866 -0.9341557 -1.3439149 -0.6607907 0.21296702 0.3288152
0.11968005 -0.21733654 0.18785805 -0.15733418 0.021991046 -0.58139014 -0.5469787 -0.2617317
-0.6652618 -0.591791 -0.4125057 -0.086438596 -0.2304083 -0.110546686 -0.8188429 -0.020935608
-1.0499288 0.257862 -0.368561 0.18241562 -0.55703604 0.104294226 -0.4700805 -0.6192232
-0.2723117 -0.46783713 -0.04123696 0.2751142 0.090219066 -0.026847053 -0.02927713 -0.10997157
0.8743417 -0.9804403 -0.34969097 0.6823574 -1.539343 -0.070612 0.117860876 -0.5015832
0.03576059 -1.8255714 0.3243475 -0.67319673 -0.2680994 1.3924749 -0.47276798 -0.9209896
0.13660528 -0.5675765 0.6847517 1.0991267 0.11777666 -1.0176114 -0.4912366 0.33048156
0.61920226 0.34485537 -0.33891204 -0.7604343 -0.17691253 0.6400787 -1.3618852 0.23488498
0.09789914 -1.0539477 -0.22007158 0.024483962 2.1295433 -0.10020122 1.9204577 -1.3762084
-0.9588187 0.5750867 0.32733965 0.8812748 -1.5891227 -1.493982 -0.704955 -1.378872
1.4231634 -0.8482193 -1.212833 1.150875 0.12863305 -0.54626524 -1.4350178 -0.5082285
-0.90967 0.115949236 -0.4680703 -0.2964458 -0.17138062 -0.17120433 -0.4539317 0.8913559
-0.6639647 0.44046885 0.4125716 0.116664246 0.7567946 -1.2115583 -0.85968184 0.61951244
-0.12211327 0.057510123 -0.65527624 -0.38428572 0.017120147 -0.7809475 0.2325765 0.04216448
-0.44160396 -0.69936955 -0.4076323 0.6065498 -0.7384615 -0.5439519 -0.87142175 0.78239816
-0.7056233 0.08021494 -0.22033274 -0.27731028 -0.6955769 -0.2507644 -0.26778883 0.084303744
-0.39944273 0.15805809 -0.023292659 -0.16162795 0.12157819 -0.7342898 0.60177344 0.12097426
-0.9961501 -0.07775488 -0.19970694 -0.6308046

fc1.bias f4 [20]
00000000: cdee 02bf 9885 1fbe f59a 2bbe 5ae9 febe
00000010: 5ca2 7cbe 6b93 acbe f368 8a3c f5f7 013d
00000020: 0b20 e9be fe45 78be 46a3 953d 8eac 34be
00000030: c2cf e6bd 3f39 90be 0230 dcbe 7c4d adbe
00000040: d6d2 61be d9ea a3be 9755 a0bd 49ee e0be
-0.5114563 -0.15578306 -0.1675833 -0.49787408 -0.2467131 -0.3370622 0.016895747 0.03173061
-0.4553226 -0.2424545 0.073065326 -0.1764395 -0.112700954 -0.28168675 -0.43005377 -0.33848178
-0.22053084 -0.32015112 -0.07828825 -0.43931797

fc2.weight f4 [20, 20]
00000000: f9d4 b9bd 7904 a63e 6d28 e93e 1bc1 53be
00000010: f7d7 8f3d 092e b93d 786a 803e e0d2 0abe
00000020: c91e 5bbe 1f3d 85be 50d8 80bd d25c 17be
00000030: b226 b2be 90fc c9be af8b 983d c4b3 663e
00000040: 6a27 d23d 8b8f a4bc 1322 2d3e 6b1c 01be
00000050: 2f71 53be 2f11 62bd 7758 a53e 01b1 2abe
00000060: c1ba f43d 6fab 3b3e ec66 4b3e 4af4 123e
00000070: 4f2f e5bd 575d 84be 813b d3bd 44ec c6bd
00000080: ddf6 003b 90e6 a4be 2d8f ad3d ba5f b53e
00000090: 99c4 19be be3c ec3d f605 abbd fe6a 55be
000000a0: 4a17 5fbe 3481 99bd f510 d33d 20ee 7dbe
000000b0: efcf 993d 6541 a53c 3b34 ca3d fdf9 8b3e
000000c0: f580 77bc 8156 9fbe f742 0dbe 2c58 b33d
000000d0: e71d 48bd 1e95 7cbe e227 303d e3ae 793e
000000e0: 0343 103e ce0a 62bd 3255 433e 0d53 0abe
000000f0: 2761 5d3e 95bf 5d3d 9bcc a9be f04d 473e
00000100: ae10 a4be efc7 fd3d d17a 393d 8ab7 15bc
00000110: a470 943d f406 ac3e 8003 073e a7da 333e
00000120: ea2e 43bd d5ce 473e f8f2 2fbe 4536 87be
00000130: a67f ff3c 6c4d 353d 869d 52be faf2 c83d
00000140: a5a7 923e ac75 87be 21bb adbe c25f a43e
00000150: c332 debd 662a c73d d32c debc fc3c bbbd
00000160: 889a bf3d 8b12 6d3e 3a58 9e3d 1762 7a3e
00000170: 175b 573e f0ca ae3e 3f58 d3bd 3c31 d0be
00000180: e0dd 1e3e 8a82 91be b884 bfbc 2c6e a43c
00000190: 099a 653d 089b 87be 309c ccbd 2c33 cf3c
000001a0: eadc b43d 2f84 74bd 0ae7 333c 67b2 33bc
000001b0: 1aac 063e 59ff b6bd 348f 713d b972 d33c
000001c0: 17dd 0ebe a367 4b3e bd73 093e 2139 5b3d
000001d0: 282d bcbc a211 323e d0ea f2bc 7ac1 90bd
000001e0: 919e a43d 6a84 083d 92f6 9fbe dfe0 673e
000001f0: 20b5 b5bd 6bb7 1dbd 5a9a eb3d 0d86 92be
00000200: 89e6 653e c9aa ae3e 677f 193e 97f6 743d
00000210: 1c31 6f3d 0f5e d43d 756f ddbd 6eae 9cbe
00000220: 3bb2 bc3c 0e21 c7bc 9a8a 44be a16a 28bd
00000230: 03e7 9a3e 0412 96be 896e c1be 980d 923e
00000240: 8829 1d3d c487 483e 55aa 2dbe dfb0 1b3e
00000250: 030f 643e 2997 4e3e 0fc4 b23d c081 e93d
00000260: 910d 293e 5ef1 ad3e 9cee f43c 8386 90be
00000270: 1fd1 45be bafd c43c 2800 80bd e905 b4bc
00000280: b2e4 9f3e 83d1 32be 2b29 14be 4405 1a3e
00000290: c250 0bbe c8bf 3bbd ba6b a43d 14f6 c3bd
000002a0: 2a2e 1e3e 9812 0f3e 76e1 ddbd 18ac eabd
000002b0: 00e9 b93e 24c3 b63e 9189 bdbb 6afe 31be
000002c0: eb19 cc3d b5a8 82bd 21fa f1bd bc3f 123e
000002d0: 7517 c93e 6119 143d 1dd3 96be 1fb9 833e
000002e0: 622e d13c c330 0ebd dd5a 89be 0bac 4cbd
000002f0: 037d 803e dbab 803e e48b d13c 6c61 15be
00000300: 4bed a23e 4d8f b43e 4882 9abe fc95 2ebe
00000310: aed1 f4bd eb27 4dbe 9c0b cb3c 854e 573d
00000320: 8a8f b7be b483 173e b54b 7c3e 2095 8abe
00000330: 55be edbd f740 1b3e 99c5 0f3e 1a2c dd3d
00000340: 2683 463d b370 afbe 3226 193d 8608 6cbe
00000350: ebf4 a2be b10e d5be 11a2 263e 7158 8c3e
00000360: e4ee f13d 1a7f 9e3e 4b73 debd 16c6 cd3d
00000370: 7efe 9b3e f89d 4abe 7cca 4ebe a70c 533e
00000380: b438 103e a080 4abe ee59 59be 2aa7 4a3e
00000390: e23e 843e 76c5 373e 95eb 293e 83b5 0bbd
000003a0: 48af 923c 2c93 af3d 4bd4 5cbd a31c f8bd
000003b0: da87 613d 45b2 0fbe eab0 153d 7fcd 393e
000003c0: cce5 783e e4f9 e33d 38db d5be dde4 2b3e
000003d0: 1eaa 14be 2268 70bb 2d1c c33d 1c37 bbbd
000003e0: 8ed2 f03d ba20 733e cfb7 3c3d 7fc5 783e
000003f0: 1383 d93e 58a2 cc3c e567 bbbd fc03 383d
-0.090738244 0.32425287 0.45538655 -0.20679133 0.07023614 0.09041984 0.2508123 -0.13557005
-0.21398462 -0.26023194 -0.06291258 -0.14781502 -0.34795147 -0.39450502 0.074485175 0.22529513
0.10261424 -0.020087978 0.1690753 -0.12608497 -0.20648645 -0.05519217 0.32294056 -0.16669084
0.11949683 0.18327115 0.1986348 0.14351001 -0.11190664 -0.25852463 -0.10314084 -0.09713033
0.0019678392 -0.32207155 0.08474574 0.35424596 -0.15016402 0.11535023 -0.08350746 -0.20841596
-0.21786228 -0.07495347 0.10305969 -0.24797869 0.07510363 0.020172784 0.098732434 0.27339163
-0.015106429 -0.31120685 -0.13795076 0.08757052 -0.048856642 -0.24666259 0.043006785 0.2438312
0.14088063 -0.055186085 0.19075468 -0.13508244 0.21619092 0.054137785 -0.33163914 0.19463325
-0.32043976 0.1239165 0.045283142 -0.009137997 0.07248047 0.33599055 0.13184929 0.17563878
-0.047652163 0.19512494 -0.17182529 -0.26408592 0.031188797 0.04426329 -0.20567903 0.09811969
0.28643528 -0.26456964 -0.3393183 0.32104307 -0.10849526 0.09724884 -0.027120983 -0.09142491
0.09355646 0.23151605 0.07731672 0.24451481 0.21030842 0.34139204 -0.10319566 -0.40662563
0.15514326 -0.28419906 -0.023378715 0.020072065 0.056055102 -0.26485467 -0.09990728 0.025292955
0.088311985 -0.059696373 0.010980377 -0.010967827 0.13151589 -0.089354225 0.05897446 0.02581154
-0.13951527 0.19863753 0.13423057 0.05352128 -0.02297075 0.17389539 -0.029652983 -0.07068153
0.08038057 0.033329405 -0.31242806 0.22644375 -0.088724375 -0.038505 0.115040496 -0.28617898
0.22451223 0.34114674 0.14990006 0.05980548 0.058396444 0.10369503 -0.10812274 -0.3060183
0.023034206 -0.024307754 -0.19193497 -0.041117314 0.30254373 -0.2931062 -0.37779644 0.28525996
0.038369685 0.1958304 -0.16959508 0.1520419 0.22271352 0.2017485 0.087288015 0.11401701
0.16509081 0.3397321 0.029898934 -0.28227624 -0.19318055 0.024046768 -0.0625003 -0.021975474
0.31229168 -0.17462735 -0.1446883 0.15041071 -0.13605025 -0.045837194 0.0802836 -0.0956842
0.15447298 0.13971937 -0.10834019 -0.114586055 0.36310577 0.35695755 -0.0057842215 -0.17382208
0.09965881 -0.063798346 -0.118152864 0.14282125 0.3927571 0.036157016 -0.29457942 0.25727174
0.025534812 -0.03471447 -0.26827136 -0.04996876 0.25095376 0.25131115 0.0255794 -0.14587945
0.31821665 0.3526558 -0.30177522 -0.17049402 -0.11954056 -0.20034759 0.02478581 0.052565116
-0.358517 0.14796335 0.24638255 -0.27066898 -0.116085686 0.15161501 0.14040221 0.10799427
0.048464917 -0.3426567 0.03738994 -0.23050126 -0.31827483 -0.4161277 0.16272761 0.27411225
0.11813143 0.30956346 -0.10861834 0.100475475 0.304676 -0.19786823 -0.20194429 0.20610295
0.1408413 -0.19775629 -0.21225712 0.1979033 0.25829226 0.17946419 0.16593774 -0.03410865
0.017905846 0.08572993 -0.053913396 -0.12114837 0.0550612 -0.14032848 0.03654567 0.18144797
0.2430641 0.11131647 -0.41768813 0.16786523 -0.1451802 -0.0036683162 0.095268585 -0.09141371
0.1175891 0.23742953 0.04607373 0.24294089 0.42482814 0.024979755 -0.09150676 0.044925675

fc2.bias f4 [20]
00000000: 3ead 82bd 7af8 d8bb 77f2 ca3c 7354 043e
00000010: 4971 00bd 132a c43d 5400 643d 5fa1 9bbd
00000020: 778f cdbd b18e 1dbd 7f03 8d3d b9c6 34be
00000030: 8444 58be c106 05be 8831 01be 01f2 063e
00000040: 3dc3 29be 5efc dabd 7f88 d23d 3d45 253c
-0.063806996 -0.0066214176 0.02477382 0.1292284 -0.031358037 0.095783375 0.055664375 -0.075991385
-0.10037129 -0.03846616 0.068854325 -0.17653932 -0.21119887 -0.12990858 -0.12616551 0.13178255
-0.16578384 -0.106926665 0.10279941 0.0100873085

fc3.weight f4 [20, 20]
00000000: 336c 823e 9699 38bd 053c 313c 052b 963e
00000010: a366 c0be 99ae 2a3e 8260 f6bc 46a9 8bbd
00000020: f6da 10be ff5b 4abe 1249 d13d 7b9a 213e
00000030: f464 91bc 79a1 52be 8592 8abe c888 01be
00000040: 5298 1f3e c1f5 523e 1af3 2d3d c915 41be
00000050: 7bb5 0f3d 6aa5 1d3e a2d8 393d 8930 cc3d
00000060: 5acd 5c3d 8a52 29bd 9c1e 1c3e f5a5 ffbd
00000070: 80f3 cf3d 32a4 f1bd 944f 09be 22ab 093e
00000080: 8593 74be 8d89 b43d 2fd7 11be a119 c93d
00000090: 081d 2f3b e941 8abe 6b5e dabb 2a21 263e
000000a0: 8115 753e d7cf 373e 6cf1 fd3c 67cf 12be
000000b0: f75d 22bf 29f7 163e 379e 34be e5b1 1dbe
000000c0: a042 0bbe 11e7 86be 7f93 813e 6590 9b3c
000000d0: 362a 05be c6e0 4c3c 6b9b 40be 79c6 5fbe
000000e0: 2d16 913d 1a02 8abe a6fa 323b 463f d3be
000000f0: 79f0 ffbc b4ae 12be 457d a03c d1b3 463d
00000100: 54a2 d33e 9815 013d 9ae1 59bd 29a7 933e
00000110: 9fb6 debd ae63 263e 29f1 c7bc d0f9 573e
00000120: fb47 17bd 15d8 383d 4963 233e 5238 49be
00000130: 6103 a2be 544d 003e 31dc 8dbd 9ee2 12bd
00000140: d568 693e 8b66 693e dfa7 15be a20d 55be
00000150: 3bd2 dd3d 8eda d7bd 9e25 3dbe 2890 a93d
00000160: 5cae bf3d 83c6 b13c 0b92 033c b719 39be
00000170: 913b c83d b84f ca3d c48e 373d c0cb 8abd
00000180: 35bb 463b f7f8 e5bc 6bae c23d a136 99be
00000190: f7c9 843e e6ed 54be fbc1 353d fddc 47be
000001a0: 9b38 c43b 9c18 213e c63e b93d b136 febd
000001b0: 1305 653e 9ae9 08bc 0f85 89be 4449 843d
000001c0: cd74 213e 2202 9fbc 64e6 fcbd aed6 683d
000001d0: 433c 1ebe c1c8 13bd 5c71 2dbe 6c0d 8abe
000001e0: 1fd4 683e 1b04 3e3e cda2 5fbd ea10 d13b
000001f0: 63e8 7ebe 6115 b2bd 4890 8b3d 320c f9bd
00000200: 9feb 21bd ddec 0fbe 2c80 b93e 141a c83d
00000210: 6bb2 90bd b49c 43be 7492 a9be de22 173c
00000220: 0c94 373e 2604 90be e332 c4bb 28a7 17be
00000230: fe2a 36be 609d b1bc dac3 8b3d 7fe7 0fbe
00000240: 716b 103f c145 183d 2d10 053d 7912 8e3e
00000250: b8f9 1e3e c24a c0bd 5c98 a53d a226 563e
00000260: 5400 b53d d7ee f1bd c7b0 d63e cdec 863c
00000270: 49b3 b2be 50df 203e 86a5 b9bb 7ce4 943e
00000280: 8ffb 0fbe c154 a63d 9e24 01be b7d0 9bbd
00000290: 7fe6 2c3d bd03 ab3d e5d4 373e 38b4 8f3c
000002a0: 7947 c1bd 2e69 46be 7a44 32bd 5c12 b9bd
000002b0: 1406 cf3d 1020 8b3d 929a 81be d190 c73d
000002c0: 9a3a 0a3c 6b90 8d3d 1077 64bd 19db a43d
000002d0: 1e8a 9cbc 62db 8cbe 80ad 9fbd 907f d33c
000002e0: 26d8 d13d 4ce0 7abe 23d0 dabd d401 083e
000002f0: 5822 9ebd 03fe 2d3e fb6f e0bd 7bc0 183e
00000300: fab9 ce3d d1de 603e e68d a53e e672 1bbe
00000310: 0230 8abe 2985 a13d 600f 043d d208 f6bc
00000320: f22c 1ebe 9b66 1f3e d9f8 31be 0958 153d
00000330: 2a2a 723d d4f0 863b 734e 05be 5b2e 57bd
00000340: bcb1 66be 817f 0bbd a9c5 f33d 8dee eabd
00000350: 18a2 083e aade 343d 392d 54be bcbc 0f3c
00000360: 337e d63d 315a 03bc c935 40be 71f0 503c
00000370: b4ba 95be ccee 1ebe cd80 bb3d a22d 8bbd
00000380: 6c84 d83e ce05 83bd 48eb 1f3e 717a be3d
00000390: 8d57 853e fe34 563e 87fb 23bd 96a9 363d
000003a0: 87bd 833e b3e7 0e3e e5b2 9e3d c8fd cb3b
000003b0: e071 75be ac89 84bd edf3 523d 915b cf3e
000003c0: 88c7 7ebc 73c3 edbc 9150 493c b6d0 93bd
000003d0: 3e4e 1a3d f2e9 6cbe d495 e63d 8ade b03e
000003e0: 21a6 273e ee1c 1ebe e3bd 86be b941 693c
000003f0: b076 9b3d e2e0 153e edd4 593e ae6f 53be
0.25473174 -0.045068346 0.010817532 0.29329696 -0.37578306 0.16668166 -0.030075315 -0.06819396
-0.14146027 -0.19761656 0.10219015 0.15781586 -0.017748334 -0.2056941 -0.2706491 -0.12649834
0.1558545 0.2060156 0.042468168 -0.18855967 0.035085183 0.15395132 0.045372613 0.09970195
0.053906776 -0.04133848 0.15246052 -0.12482826 0.10153866 -0.11798896 -0.13409263 0.13444188
-0.23884399 0.08815298 -0.14242242 0.098193415 0.0026720185 -0.2700341 -0.0066640875 0.16223589
0.23933984 0.17950378 0.030998908 -0.1433693 -0.6342463 0.14742722 -0.17638479 -0.15399893
-0.13599634 -0.26348165 0.25307843 0.018989751 -0.13004383 0.012504762 -0.18809287 -0.21853055
0.07084308 -0.26954728 0.0027310043 -0.4125921 -0.031242596 -0.14324456 0.019590983 0.04851133
0.41334784 0.031514734 -0.053193666 0.2883847 -0.10874676 0.16248962 -0.024406986 0.2109139
-0.03693388 0.045127947 0.15955843 -0.1965039 -0.31643203 0.12529498 -0.06926764 -0.03586065
0.22793896 0.22793023 -0.14614819 -0.20805982 0.10831114 -0.10539733 -0.18471381 0.08279449
0.09359428 0.021701103 0.008030425 -0.18076216 0.097769864 0.098784864 0.044813886 -0.067771435
0.0030323986 -0.028072817 0.09505924 -0.2992449 0.25935337 -0.20793876 0.044374447 -0.19517894
0.005988193 0.15732044 0.09045176 -0.12412775 0.22365217 -0.008356476 -0.26859328 0.06459287
0.15767212 -0.019410197 -0.12348631 0.05684536 -0.15452676 -0.036080126 -0.16937774 -0.26963365
0.22737168 0.18556254 -0.05459862 0.00638019 -0.24893336 -0.08695484 0.06814629 -0.12160529
-0.039531346 -0.140552 0.362306 0.09770599 -0.070652805 -0.19102746 -0.33119547 0.009224622
0.17927569 -0.28128165 -0.0059875115 -0.14809859 -0.17789838 -0.021681488 0.06824465 -0.14053153
0.5641394 0.037175898 0.03248613 0.2774847 0.15524948 -0.09389259 0.08085701 0.20913175
0.08837953 -0.11813133 0.41931745 0.016470337 -0.3490241 0.15710187 -0.005665484 0.2908057
-0.14060806 0.08121634 -0.12611625 -0.076081686 0.042212006 0.083503224 0.17952307 0.01754199
-0.094374605 -0.1937606 -0.043522336 -0.09036705 0.10108581 0.06793225 -0.2531324 0.097444184
0.008436823 0.06912311 -0.05577761 0.08049602 -0.019108828 -0.27511126 -0.077967644 0.025817662
0.10246305 -0.24499625 -0.1068423 0.13281947 -0.07721394 0.16991429 -0.109588586 0.14917175
0.10094066 0.21959998 0.32334822 -0.15180549 -0.26989752 0.078867264 0.032241225 -0.030033503
-0.15446833 0.15566485 -0.17380084 0.03646091 0.059122242 0.0041180644 -0.13018207 -0.052534442
-0.22528738 -0.034057144 0.11902935 -0.11471281 0.13343084 0.04415766 -0.20720376 0.008773025
0.10473289 -0.008017109 -0.18770517 0.012752638 -0.29244006 -0.15520781 0.09155426 -0.06795813
0.4228853 -0.063975915 0.15617096 0.093006976 0.26043358 0.20918652 -0.040034797 0.044595324
0.25730535 0.13955574 0.07748965 0.0062253214 -0.23969221 -0.06471571 0.051502157 0.40499547
-0.015550502 -0.029023862 0.012287275 -0.07217543 0.037672274 -0.23136118 0.11259046 0.34544784
0.16371967 -0.15440723 -0.26316747 0.014236861 0.07590997 0.14636567 0.21272631 -0.20648071

fc3.bias f4 [20]
00000000: 414a a2bd c024 e3bc e566 3d3e 7268 663d
00000010: 988d e63d c7b6 813d 2ca4 bebd ec1a a73c
00000020: eda3 d03b a36a be3c 371a e6ba f097 62bd
00000030: c8ff 473d 6641 5abd 30a2 0c3e 5324 55bd
00000040: 3fc9 2d3e 12b6 2c3d e92f 103e a8cc 21bd
-0.07924319 -0.027727485 0.18496282 0.05625195 0.112574756 0.0633369 -0.09308657 0.02039858
0.0063671977 0.023244208 -0.001755542 -0.05532068 0.048827916 -0.053285025 0.13733745 -0.052036595
0.169713 0.042165823 0.14080776 -0.039501816

fc4.weight f4 [20, 20]
00000000: 1483 333e 7d75 2d3c 7e09 f2bb 5790 a93d
00000010: 61b6 54be 55b7 1f3d a1a2 96bd eceb 413c
00000020: c700 153e a670 2abc 6bae 003e efae 273e
00000030: c771 35be 9bc3 65bd 5d9c 28be 574d ee3c
00000040: a9b2 1cbd debc 15be ca70 3d3e 56c2 06be
00000050: 3439 d6bd 5fe0 323e bc56 5dbe b30b 673e
00000060: bc66 6cbd 023d 003e 786d 71be 28c1 3ebe
00000070: 057e 9b3d fd34 12bd afec 4b3e 4971 303e
00000080: 30e0 42be b21c 44bd affd 343d 9992 c23e
00000090: d35e d23c e627 793b ceb6 73bc 1b93 b33d
000000a0: fd7a 3e3d 880b 87bd 8039 d23d 4c7c 55be
000000b0: 67fa fbbd df1e 0bbe eea1 443e 6272 a9bd
000000c0: 7766 acbd 0a55 7e3e 7918 843d 1911 933e
000000d0: 4b2b 8cbd c57d 32bd bda4 f33d 6c56 6abd
000000e0: 176d aa3d 909a 29be 0b2f f6bd e99b 813d
000000f0: b917 a53b 516a 213e 62d0 83be 5768 e5bd
00000100: cd4c c2bd 4c98 7cbd 97a6 4fbe 6796 86bc
00000110: 5b3f dd3d 5207 4dbd 1290 173d 36fe 883e
00000120: ce5b 55be c190 ad3d c4e1 883e 3111 e9bc
00000130: 56a4 453e aeb3 c23c 2959 80be d224 413d
00000140: 0e3e 1cbe 48ed d4bb 5715 893e ddfb 2d3d
00000150: c92d a83d 8ab5 32be 9083 3a3e 1632 4fbe
00000160: e4c5 bebb d699 3ebd e4b5 fd3c 9de6 8ebd
00000170: a56d 8fbd 5662 75bd b519 80be 7a64 b5be
00000180: b573 863e 5781 60bc 0a44 a43d 6576 e7bd
00000190: da45 bb3d 88d6 d8bd 8da7 15bd 4559 ab3d
000001a0: 0a89 f5bd 837c ddbd 4c5d 823e aa97 223e
000001b0: dc6a 41be b8cf b63d 3b6f 473d 41f5 813e
000001c0: ea61 eabd 8bef b93d cc3f 4cbe ec1c 52bc
000001d0: d5bc 50be 4c2b 413e e974 2dbe 6722 543e
000001e0: 677c 483e fbe9 36be fbd9 cc3d dccc 60be
000001f0: 337c 733c 3fda 683d 799a b53d 917b 71be
00000200: c076 cdbd 3908 4bbe 97f7 a53d aecc 3b3d
00000210: 583d 0f3e 86d2 46be 772b 9abe 7407 76be
00000220: 464c 843e 9877 713e cd77 ad3e 07d5 893e
00000230: 1ebb 0a3e 403e 133e d8a8 4a3e a6c5 50be
00000240: 01ff ef3d 8da7 503d 4bbc f7bc 9b0e 10be
00000250: 4569 223e 05ed e93d eb6b 903d de2e 073e
00000260: 422c 3abe 59a4 253b 19b3 0a3e ae8e 253d
00000270: 68e8 c13c aef4 9c3d d574 d2bd 812c 443e
00000280: 8250 f7bc c66e 2f3e ac50 4a3e 41e1 513d
00000290: 8bb0 353e 25a1 3dbe 6e99 80bd a32e 9cbe
000002a0: ceae 2c3e 6b3e 05be 213e 803c 21ad b8be
000002b0: ed76 c8bd 64b2 7f3c e56b 25be aa04 a1be
000002c0: bdb5 613d 31f2 3ebe d50a 133e 3f8c 983e
000002d0: 2314 e8bd e176 bcbd b5bf 87be ae5d 883c
000002e0: 87ba 1d3e f252 343d 88ff fc3c 836b ce3d
000002f0: 33cc 7bbd a2aa 003e 88e9 52bd b5d5 523e
00000300: 7f04 93bd 375a 393d 1f4e 0b3e 64ce 0a3e
00000310: b783 cbbc 8b82 05be f71c 1ebe 5222 69be
00000320: 7b20 393e 613a 073e dc10 b33e ff52 45be
00000330: d85e 143e ef1b 1f3e 4103 6e3e 2131 88be
00000340: 8b90 0e3e dcf4 143e bef3 46be 90ed 18be
00000350: 7435 65be 3f46 043e ace7 91be 020f dbbe
00000360: 207a 3b3c da53 3fbe 7907 d33e 50ed 20be
00000370: 3968 8d3e 08eb 08bb 828c 1a3e 8027 ddbb
00000380: 71c1 62bd d1c8 c7bd d8ae 4b3e 4606 3abe
00000390: 9695 07be 92c9 2bbe 0d54 553e cb6d a2be
000003a0: 2d81 973c aeae b33d 9184 91be bb6d 31be
000003b0: 1aa7 f03c 9f0a 3fbd 8aef 8f3e ab1e 683e
000003c0: 1035 a13e 25cb d8bb c52d 2bbd 65fc e33c
000003d0: 00a2 22be 2781 f43d 8893 b9bd d574 bdbd
000003e0: 933f 94bd 9560 2f3e b566 163e 2dc4 1b3c
000003f0: b108 1b3e 4ef7 aebd 1041 6ebe 2159 85be
0.17530471 0.010587093 -0.0073863855 0.08279484 -0.20772697 0.0389932 -0.07355238 0.011836033
0.14551078 -0.010402834 0.12566535 0.16375326 -0.17719184 -0.056094747 -0.16465898 0.029089613
-0.03825632 -0.14622828 0.18500057 -0.13160071 -0.104601294 0.17468403 -0.21615118 0.22563057
-0.057715163 0.12523273 -0.23576915 -0.18628371 0.07592396 -0.035695065 0.19914506 0.17230715
-0.19030833 -0.04787893 0.044187244 0.3800247 0.025679981 0.0038018166 -0.014875127 0.087682925
0.04650401 -0.06593996 0.102648735 -0.20848197 -0.1230362 -0.13585995 0.19202396 -0.0827377
-0.08417981 0.24837127 0.0644998 0.28723982 -0.06844195 -0.043576974 0.11896656 -0.057211325
0.083215885 -0.16562867 -0.120206915 0.063285656 0.0050382284 0.15763213 -0.2574492 -0.11201542
-0.09487305 -0.06166868 -0.20278393 -0.01642914 0.108031 -0.05005581 0.03700263 0.26756448
-0.20835802 0.08474875 0.26734746 -0.02845058 0.1930097 0.023767319 -0.25068024 0.047154255
-0.15258047 -0.0064980127 0.26774094 0.042476524 0.08211858 -0.17452064 0.1821425 -0.2023395
-0.0058219302 -0.046533428 0.030970521 -0.0697758 -0.07003335 -0.059908234 -0.25019613 -0.3542822
0.26260152 -0.013702712 0.0802079 -0.11301879 0.091441825 -0.105877936 -0.036536742 0.08366636
-0.11989029 -0.10814764 0.25461805 0.15878168 -0.1888842 0.08926338 0.048690062 0.25382426
-0.11444457 0.09078892 -0.19946212 -0.012824278 -0.20384534 0.18864173 -0.16939129 0.20716248
0.19578706 -0.17862694 0.10002514 -0.21953148 0.014861154 0.05684876 0.08867354 -0.23582293
-0.100324154 -0.19827355 0.08103865 0.045849495 0.13988245 -0.19416246 -0.30111286 -0.2402628
0.25839442 0.23580778 0.33880463 0.2692034 0.13547942 0.14379215 0.19790971 -0.20387897
0.1171856 0.05094104 -0.030241152 -0.14068072 0.1586047 0.11422161 0.07051834 0.13201472
-0.18180946 0.002527496 0.13544883 0.040419273 0.02367039 0.076638564 -0.1027619 0.19157602
-0.030189756 0.171321 0.19757336 0.05124021 0.17743127 -0.18518503 -0.062792644 -0.3050433
0.16863558 -0.13012092 0.015654625 -0.36069587 -0.09788308 0.0156064965 -0.1615444 -0.3144887
0.05510496 -0.18647076 0.14359601 0.297945 -0.11331966 -0.09202362 -0.26513448 0.016646232
0.15403186 0.044024415 0.030883566 0.100791 -0.061474036 0.12565091 -0.051492244 0.20589335
-0.07178592 0.04525205 0.1360402 0.13555294 -0.02484308 -0.1303808 -0.15440737 -0.22766998
0.18078797 0.13205864 0.349738 -0.19269942 0.14489305 0.15538 0.23243429 -0.26599982
0.13922326 0.14546531 -0.19428918 -0.14934373 -0.22383672 0.12917422 -0.28497064 -0.42784888
0.011442691 -0.1868433 0.4121664 -0.15715528 0.27618578 -0.0020892043 0.15092662 -0.0067490935
-0.05536026 -0.097550996 0.19890916 -0.18166456 -0.13240656 -0.16776112 0.20832844 -0.3172439
0.018494213 0.08773552 -0.28421453 -0.17327015 0.029376555 -0.04664099 0.2811244 0.22667949
0.31485796 -0.0066160136 -0.041791696 0.027830312 -0.1588211 0.11938696 -0.090613425 -0.092507996
-0.07238688 0.17126687 0.14687617 0.009507221 0.15140034 -0.085432634 -0.23267007 -0.26044562

fc4.bias f4 [20]
00000000: cca8 ac3c 850d 6cbd 8c80 883c cce9 37bd
00000010: e98d ffbd ca88 e73d 9dba 2fbc 3505 9f3c
00000020: 73b3 1c3e 7491 7f3d ee0c 5cbd 6527 cbbc
00000030: 945d f43d 5288 383d 489e 933c c9dd acbd
00000040: b2cd 92bc 7a52 4b3d 9eef a53d 8c04 adbc
0.021076582 -0.05763008 0.016662858 -0.0449007 -0.12478239 0.11305387 -0.010725644 0.019411663
0.1530283 0.062394574 -0.05372327 -0.024799058 0.11931911 0.04505188 0.01801981 -0.0844074
-0.017920349 0.049639203 0.08102344 -0.021120332

fc5.weight f4 [1, 20]
00000000: 5226 23bc 8d52 873d 0c4f 1cbb e4b2 6d3d
00000010: 4af3 b2bd 1548 1c3a b96a 45be 32fe 28bb
00000020: a98e 31be 6487 293e 104d 59be a5e9 33be
00000030: 2a55 03bd 3b02 6a3b 14b8 54bc f901 103e
00000040: 4dbb 023c fc08 b63d f4bc 3a3c ccb0 153e
-0.009957867 0.06607542 -0.0023850827 0.05803193 -0.0873781 0.0005961669 -0.19278993 -0.0025786278
-0.17339577 0.16555554 -0.21220803 -0.17569597 -0.03206364 0.0035706896 -0.012983341 0.14063253
0.007979226 0.088884324 0.011397589 0.14618224
