model.pt (torch_old, 7527 bytes, 9 tensors)

fc1.weight f4 [20, 10]
000000 55 69 19 c0 2c a2 ee be 87 cd 5f bf 06 ab a3 3e
       -2.397054 -0.46608102 -0.87422985 0.31966418
000010 f9 03 22 3f f6 ca 53 3e 3f a6 0f bf 01 75 a9 3c
       0.6328731 0.20682892 -0.56113046 0.020685675
000020 a7 43 5d 3d a9 97 24 bf f6 ff d9 bf 56 b2 82 3f
       0.054019596 -0.64293915 -1.7031238 1.0210674
000030 5f 52 78 bc 46 a4 b5 3e f3 3e bd bf 0a 98 ef 3e
       -0.015156358 0.35476893 -1.4784836 0.46795684
000040 ad f7 c1 3d 0a c6 ce bf ec 69 c3 bd ae 6b ae bf
       0.094710685 -1.6154187 -0.09541687 -1.3626611
000050 48 9c e5 3d 73 b5 d0 bd 7f 18 e7 be e2 cf bd be
       0.11211449 -0.10190859 -0.45135877 -0.37072664
000060 95 c2 c7 be 52 d3 3d bf 1b be 47 be 07 ef 9f bd
       -0.39015642 -0.74150574 -0.19506113 -0.07809263
000070 7d 54 a2 be 32 64 9f 3c 90 97 91 3f 75 a9 a9 be
       -0.31705084 0.019456957 1.1374378 -0.33137098
000080 2f 9c 48 3d e3 9c a4 be d9 9a f0 bf 8c 93 34 bf
       0.048977073 -0.32150945 -1.8797256 -0.7053764
000090 5a a2 8d be 4f 4e 08 bf 07 00 5e bf 04 89 11 bb
       -0.27662927 -0.5324449 -0.8671879 -0.0022206912
0000a0 a5 a9 59 c0 db d9 28 bf 2c e2 c7 be 6c 0f 1a bf
       -3.4009793 -0.6595742 -0.39039743 -0.6017978
0000b0 f3 1e 2f 3f 87 0b 3b 3f ac 80 f7 bd ba b6 a3 bf
       0.684066 0.73064464 -0.12085089 -1.2790139
0000c0 10 c8 70 bf e1 0f 4c 3f 2a c2 be 3f b3 90 a6 bf
       -0.9405527 0.7971173 1.4903004 -1.3012909
0000d0 50 cd 96 be 6d 7e 01 40 2a ac 6f bf 67 c3 f6 3f
       -0.29453516 2.0233414 -0.93622077 1.9278382
0000e0 c3 a6 d4 bd f0 6c 32 bf 8a 83 94 3d f3 7a a4 3e
       -0.1038337 -0.69697475 0.072516516 0.32125053
0000f0 08 35 a9 bf 3c 35 e6 bf 51 4b 89 3e 53 b7 0f c0
       -1.3219309 -1.7984996 0.26815274 -2.2455642
000100 4e 86 3b 3f 6b a7 99 3f c5 95 95 bf 4e fd 13 bf
       0.7325181 1.2004217 -1.1686331 -0.5780839
000110 84 69 12 3e 58 56 22 bf 06 4d 38 be 00 8a 1a bf
       0.14298064 -0.63413 -0.17998132 -0.6036682
000120 70 67 ce be b0 0b 85 bd 37 03 0b bf 84 d4 fd be
       -0.40313292 -0.0649637 -0.5430178 -0.495762
000130 79 16 18 bf 7d 0a 25 3e 13 17 16 bf c5 09 d2 be
       -0.5940929 0.16117282 -0.5862896 -0.4102308
000140 d6 a7 92 be ca db a2 be ee 8f d3 3e 0e 22 4d 3f
       -0.28643674 -0.3180831 0.41320747 0.8013009
000150 d2 c4 1e c0 89 45 47 3f 9e 20 a0 bf 3a 31 a4 be
       -2.480763 0.7784048 -1.2509954 -0.32068807
000160 bf f6 16 bf 21 74 fc 3e 1e 9b 69 bc 29 68 0c bf
       -0.58970255 0.4930735 -0.014258174 -0.54846436
000170 58 29 4a bf da c3 92 be 88 2e cf 3e b5 b5 bd 3e
       -0.78969336 -0.28665048 0.40465188 0.37052694
000180 c9 91 bb be c6 61 8d bf 0b 7e 9d be 1b 5e 60 be
       -0.36634663 -1.1045463 -0.30760226 -0.21910898
000190 3e 5e ec bf 24 6f 84 3f fd 1e 2d bf af bc 31 be
       -1.846626 1.0346417 -0.6762541 -0.17357133
0001a0 84 55 93 3f e0 bf df be ae 71 71 3f f9 11 be bf
       1.1510472 -0.43701077 0.94314086 -1.4849235
0001b0 b5 9e bb 3e e8 0a 8a bf 0d 49 2e 40 28 bd f6 3f
       0.3664452 -1.0784578 2.7232087 1.9276476
0001c0 64 8e 98 3e 1f 05 bb bf 5f d1 b3 be 26 2b a4 bf
       0.29796135 -1.4610938 -0.35120675 -1.2825668
0001d0 b1 31 92 3f ee 79 29 bf b4 9c 1a bf 04 92 60 3e
       1.1421415 -0.66201675 -0.6039536 0.219307
0001e0 c1 71 ca bf 06 0f 51 bf 0b 04 32 be 68 17 44 be
       -1.5815965 -0.8166355 -0.17384355 -0.19149554
0001f0 6e eb 3d bf 9f 4c 62 3f a6 ca 39 be 03 3a 3c bf
       -0.7418736 0.88398165 -0.1814371 -0.7352602
000200 00 77 44 be c9 44 a9 3e 96 c9 74 bd a5 31 a4 bf
       -0.1918602 0.3306029 -0.05976256 -1.282765
000210 76 8e 5d bf 4d 64 34 3f ed 2f 8a bf 5d a7 c2 bf
       -0.86545503 0.70465547 -1.0795876 -1.5207325
000220 e5 79 af bc e5 4f b8 3e 74 dd 86 be 47 8f 48 bf
       -0.021420429 0.35998455 -0.2634083 -0.78343624
000230 2f 94 85 3e 9d e2 cb 3f 45 00 64 bf 19 51 94 bc
       0.26089618 1.5928532 -0.8906291 -0.018105077
000240 92 64 9f 3f 55 6f 44 bf 88 12 91 3f d2 2a a6 bf
       1.2452567 -0.7673238 1.133378 -1.2981818
000250 0b e4 57 3e 4a 60 a8 bf 80 42 6b c0 5d 7c 8e bf
       0.21083085 -1.3154385 -3.6759338 -1.1131703
000260 62 24 91 bf b0 27 af 3e 43 55 e5 3e cb 0d c3 3e
       -1.1339228 0.34209967 0.44791612 0.3809646
000270 8b 9b 1c bf 17 1c 2d be 41 32 b2 be ee 64 7e be
       -0.6117484 -0.16905247 -0.34803966 -0.24843189
000280 a0 d2 bb 3e af 0d 2d bf 82 b6 a5 be 4a 8b f7 bd
       0.36684132 -0.67599005 -0.32365805 -0.12087114
000290 4b 5a 65 3e 3f 9c 44 3e 6c 2a 48 3e 40 87 88 bf
       0.22397725 0.19200228 0.19547433 -1.0666275
0002a0 0f fd b2 be 4d 60 37 be d7 dd 5f c0 b8 ed 64 3f
       -0.34958693 -0.1790783 -3.497915 0.8942523
0002b0 5f 3a 90 3d 30 79 9c bf a7 23 6b 3f 37 ca 54 3f
       0.070423834 -1.2224483 0.91851276 0.83121055
0002c0 6c be bd bd 60 85 83 be 32 a6 c9 be 61 29 18 3f
       -0.09264836 -0.25687695 -0.3938461 0.5943814
0002d0 ea 7e f2 be 73 8f 38 bf ab a3 f5 bd 59 be f2 3e
       -0.47362453 -0.72093886 -0.11994108 0.4741085
0002e0 1e f6 b1 3e ab 02 53 3f 1b ca 9e 3d 5c b1 f4 be
       0.34758085 0.82425946 0.07753392 -0.47791564
0002f0 41 40 11 be 0f 7c 53 3f 53 8f 83 3f a9 f5 86 3f
       -0.14184667 0.82611173 1.0278114 1.054372
000300 81 44 32 3f b9 f9 79 3e 69 0d 0a c0 e5 f5 0b 3f
       0.6963578 0.24411668 -2.1570685 0.5467208
000310 4f 53 e0 3d 8e b1 96 bf 76 e7 4a be cc 85 dc be
       0.1095339 -1.1772935 -0.19814858 -0.4307083

fc1.bias f4 [20]
000000 78 7e b4 be 92 e1 cd be de c9 39 bf 02 87 35 bf
       -0.35252738 -0.4021116 -0.7257365 -0.7090913
000010 6d 61 a9 be 57 dd d1 3e 21 be 01 3e ce b6 a3 be
       -0.33082142 0.4098918 0.12670185 -0.31975406
000020 88 45 85 be 90 76 14 be b8 b5 f4 be d0 45 b5 bd
       -0.2602961 -0.14498353 -0.4779489 -0.08851206
000030 1d fd 2a 3e 1e 46 01 bf f0 5a 9a 3d 33 0a ad be
       0.16698118 -0.50497615 0.07536876 -0.33796844
000040 fe e4 bd be 1c b8 88 be a8 50 f1 bd 31 4e b6 be
       -0.3708877 -0.26702964 -0.11782962 -0.3560653

fc2.weight f4 [20, 20]
000000 22 31 76 be f8 f2 50 3d 02 66 fb 3d 99 3b 00 bd
       -0.2404218 0.051012963 0.12275316 -0.031306837
000010 e4 62 89 bd ea 29 64 bd 02 d4 61 ba 35 b9 74 be
       -0.06708315 -0.055704035 -0.00086146605 -0.23898776
000020 40 61 8f 3d 13 79 f5 bd 7d 09 06 be 24 f0 3d 3e
       0.07000971 -0.11985984 -0.13089557 0.18548638
000030 a8 81 8b bb 0e ad 9a bd 68 e6 b2 bc 01 f7 84 3e
       -0.0042573996 -0.07552539 -0.021838382 0.259697
000040 94 3c 32 3d 8b 82 8d 3c 91 10 dc 3d 59 a6 bf be
       0.043514803 0.017274162 0.10745347 -0.374316
000050 7a 12 f4 bd 40 2b 8a bd ac 48 ff 3d 36 37 49 3d
       -0.119175866 -0.067465305 0.12465033 0.04912492
000060 47 5e 91 be ee b5 0f 3e c3 05 ad 3d df 37 e5 3d
       -0.2839224 0.14034244 0.084483646 0.11192297
000070 ae 0c d7 bd 64 83 63 3d 32 76 74 bd 65 6e f2 3d
       -0.10500465 0.055545226 -0.059683032 0.11837462
000080 37 b3 21 3d c0 e8 48 be b6 ae ce bd a9 43 0f bb
       0.039477553 -0.19620037 -0.10091917 -0.0021860397
000090 47 c3 26 be 47 fa b8 bd 80 64 96 bd 07 8c 8e 3e
       -0.1628543 -0.090321116 -0.073433876 0.27841207
0000a0 dd 13 68 be ac 10 81 be 3e db fa 3d 0d a6 f3 3d
       -0.22663827 -0.25208032 0.122488484 0.11896906
0000b0 c0 f6 00 be 5b bd a7 bc b7 da a6 be 8d fb ba bb
       -0.12594128 -0.020476034 -0.3258874 -0.0057062567
0000c0 8a 3a f1 bc 5e 2f 27 3b 03 ab ce 3e fc 32 97 be
       -0.029446859 0.002551041 0.40364847 -0.29531085
0000d0 1b bf fe 3c 7e 8e 53 bd bc 29 64 3b d9 19 49 be
       0.031096986 -0.051649563 0.0034814915 -0.19638766
0000e0 ce b6 a0 3e 86 ec a2 bb 28 c6 aa 3c df ac e0 3e
       0.3138947 -0.0049720434 0.020846441 0.4388189
0000f0 a6 b8 76 be 11 79 3c 3d e4 35 31 3e e8 10 24 be
       -0.24093875 0.046013895 0.17305714 -0.16022074
000100 b3 4e 19 be 61 d5 ab 3e 56 26 f4 bd e8 e5 23 be
       -0.14971428 0.33561233 -0.119213745 -0.16005671
000110 51 9a a4 be 65 ef 4c 3e d6 f2 1f 3e e2 ba d8 be
       -0.32148984 0.20013197 0.15619978 -0.4233008
000120 72 01 8f 3c 4f c1 e8 3b 84 94 e2 bd ca 6b c5 bd
       0.017456744 0.0071031223 -0.11063483 -0.096397
000130 03 98 4d 3e 75 a4 c9 3e 76 01 cc 3c b2 aa 2f 3e
       0.20077519 0.39383283 0.02490304 0.17154959
000140 a8 b2 24 be 31 67 af be d6 7e d2 bd 0e 61 92 be
       -0.16083777 -0.34258416 -0.10278098 -0.28589672
000150 99 18 5e be 4c 21 b6 3e b1 14 67 be b7 65 70 3e
       -0.21689071 0.35572278 -0.22566487 0.23476301
000160 af 39 c2 be 15 74 9b bc d8 23 b4 3e bf eb e3 bd
       -0.37934634 -0.01897625 0.35183597 -0.111289494
000170 27 1f f4 3c 55 61 5a be 35 c4 9c be 96 ae 32 be
       0.02980001 -0.21326192 -0.30618444 -0.17449412
000180 16 18 19 be 09 8e b5 3e d5 06 0e 3e 86 76 d5 3e
       -0.14950594 0.35459927 0.13869794 0.4169199
000190 51 27 bc ba d8 8b 1f 3e 55 7d 2b bd 4e 5b 8e 3e
       -0.0014354979 0.1558069 -0.041867573 0.27804035
0001a0 72 fe 97 3e e3 7a ab bd e5 cc c3 3e 06 68 68 3e
       0.29686314 -0.08373048 0.3824226 0.22695932
0001b0 19 d2 1c 3e 89 6f 06 3e 9d 50 ce be 2e 65 98 3e
       0.15314521 0.13128485 -0.40295878 0.29764694
0001c0 8f ce 16 bd 71 aa 1d 3e 59 c7 3a 3e 29 bd d7 3e
       -0.036818083 0.1539705 0.18240108 0.42136505
0001d0 1f ad eb bd 51 47 7a be 1b ce 2b be 0e 33 aa be
       -0.115076296 -0.24441268 -0.16777842 -0.33242077
0001e0 5b 46 81 3e 4c 65 8d bd a6 a7 08 3e 81 f1 d4 bd
       0.2524899 -0.069040865 0.13345203 -0.10397626
0001f0 8a 6c 0e be 2d 88 af ba d7 52 de bd 09 9c 02 be
       -0.13908592 -0.0013392024 -0.10855644 -0.12754835
000200 54 4e a9 3d 9e 41 30 3e f0 f8 2d 3d e6 81 e3 3d
       0.08266893 0.17212531 0.042473733 0.111087605
000210 b2 d8 95 bd 33 4c b7 3d 3c cb b4 3d 52 21 09 be
       -0.07316722 0.08950081 0.088278264 -0.13391617
000220 3b 50 63 3e e4 b5 96 bd db b9 9b 3b ab d7 03 be
       0.22198574 -0.07358912 0.0047523803 -0.1287524
000230 c4 43 a3 be 0c 67 3a be 4d ab fc 3c a2 8e a5 be
       -0.3188764 -0.18203372 0.030843401 -0.32335383
000240 9b c1 f8 be 45 b7 02 3e 09 5d a7 be 47 73 47 be
       -0.4858521 0.12765224 -0.32688168 -0.19477569
000250 9e 76 c6 be d1 e7 a6 3e 57 40 2e 3e a4 74 38 be
       -0.38762373 0.32598737 0.17016731 -0.18013245
000260 f8 4b 85 3e c2 eb 7f 3d 9d d5 cb be 3f a2 44 be
       0.26034522 0.062480696 -0.39811411 -0.19202517
000270 b6 57 b1 3d 82 e9 44 3e e3 53 1e 3e fe dc a7 3e
       0.08659308 0.19229701 0.15461688 0.3278579
000280 b6 dc 24 bd 4d 3e 99 be 4a 63 4f bd 6d 40 fe bc
       -0.04024955 -0.29930344 -0.0506318 -0.03103658
000290 3c 21 6a be 6b f9 6b 3d ce 0d 96 3a f8 b9 98 3d
       -0.2286424 0.05761091 0.0011448206 0.07457346
0002a0 43 ea 73 be 4b e3 f2 3d 12 77 be bc d6 01 33 be
       -0.23819833 0.11859759 -0.023250137 -0.17481169
0002b0 47 86 ed 3d 2a 85 ce 3c d7 3d 33 3d 7d 33 45 bd
       0.11597877 0.025209982 0.043760147 -0.048144806
0002c0 4a bc 8f bc 32 ac 3b 3e a7 6f 24 3e 54 d5 ba 3e
       -0.017545838 0.18327406 0.16058217 0.3649088
0002d0 29 de c9 bd 69 0e 63 bc 3b af 4d b8 32 66 94 be
       -0.09856827 -0.013858416 -4.9039005e-05 -0.2898422
0002e0 60 7e bd be 8b 00 83 3e c3 1c 88 bd a8 06 b3 bc
       -0.3701048 0.25586352 -0.06646111 -0.02185376
0002f0 b1 9a 27 be a1 bd c3 bd 82 84 f1 3d 55 ee f6 bd
       -0.16367604 -0.09557653 0.11792852 -0.12057177
000300 de c4 fb bc 14 ee 92 be f4 08 8c be 66 1e 93 be
       -0.030733522 -0.28697264 -0.2735058 -0.2873413
000310 64 49 8d 3e 02 f6 aa 3e c1 28 57 3e 39 cd a0 3d
       0.27595055 0.33390814 0.2101164 0.07851643
000320 13 1f 2a be 51 dd 72 3e a7 c5 7a 3d 56 01 c0 bc
       -0.16613416 0.23717238 0.061223652 -0.023438137
000330 e7 72 48 bd 79 56 ab bd 20 8e f7 3d c5 89 24 be
       -0.048937704 -0.08366103 0.12087655 -0.1606818
000340 da 29 a4 bd 1f 1f 3b bd 60 74 a2 3d 12 b6 88 3c
       -0.08015795 -0.045683976 0.07932353 0.01668838
000350 2a 27 8c bd 0e b7 82 bd 77 b6 37 3e 38 8c ab 3d
       -0.068434075 -0.06382571 0.17940699 0.08376354
000360 eb 51 30 be 27 eb 4e be 98 e2 25 3d 63 1b 7c 3d
       -0.17218749 -0.20206891 0.0404993 0.061549556
000370 00 e9 6d be 9e 42 a0 be 26 8a 83 be 03 c3 e1 bc
       -0.23233414 -0.31300825 -0.25691336 -0.02755881
000380 5e 88 1b be 27 23 a0 3e f2 d4 58 be 2a 86 b6 bb
       -0.15188739 0.3127682 -0.21174982 -0.005570193
000390 32 30 61 be 1c 15 46 3e 3c cb bb 3e a1 c7 9e bd
       -0.21991041 0.1934399 0.36678493 -0.0775292
0003a0 0a c6 47 3c c8 67 54 be 3c d4 b2 be 5c 9a 9b be
       0.012193212 -0.20742714 -0.34927547 -0.30391204
0003b0 e3 e8 9f 3d 9d 7f a4 3e 1e 96 fe 3b cf 30 6d 3e
       0.078080915 0.3212861 0.00776936 0.2316315
0003c0 01 8d 8a 3e d5 d4 c3 3e 7f 09 fc bd ed 7f 9f 3d
       0.27060702 0.38248315 -0.12306499 0.07788072
0003d0 cf db 35 3e ac ae b5 be c6 95 8f 3e ae 58 ff 3c
       0.17759632 -0.35484827 0.28043956 0.031170215
0003e0 fa be b3 3e 90 7d 3e be fb b9 e4 be ea c8 a9 3e
       0.3510664 -0.18602586 -0.44673142 0.33161098
0003f0 51 2d d9 3d 1c 60 21 3e 1a 4f 81 3e b9 24 30 3d
       0.106043465 0.15759319 0.25255662 0.04300377

fc2.bias f4 [20]
000000 b3 cf 1a 3e 5c 63 a3 bc 5c ac a3 bc 4e 17 db bd
       0.15118293 -0.01994484 -0.019979648 -0.106978044
000010 d4 39 a8 bd 26 8c 01 be fb cc a4 bd 30 ff 5f 3e
       -0.08214155 -0.12651119 -0.080469094 0.2187469
000020 b6 13 05 be ed ef 56 bc 43 a5 d9 3c ce 59 f6 bb
       -0.129958 -0.013118726 0.02656806 -0.00751803
000030 e4 cf 33 be 51 a5 01 be c8 de c3 3d e0 07 58 be
       -0.17559773 -0.1266072 0.095639765 -0.21096754
000040 f6 46 3d 3e 06 2a 17 3e c4 60 b3 3d 89 de 16 3d
       0.184841 0.14762124 0.08758691 0.03683332

fc3.weight f4 [20, 20]
000000 fc 3a 12 3e f5 90 4c be 75 5e a8 3d f3 9c d1 bd
       0.14280313 -0.19977172 0.08221141 -0.10235014
000010 a4 7b da 3e 64 a7 f5 3d ba 7f 20 be 59 14 b5 3e
       0.42672455 0.11994818 -0.15673724 0.35367087
000020 27 bf 08 be 7f 6d 22 3e 00 bb b5 bb da 4a 8b 3d
       -0.13354169 0.15862082 -0.005545974 0.06801386
000030 8f ac f1 be 11 30 2e 3e 86 0e 10 be 2f 4d f6 bd
       -0.47201964 0.17010523 -0.1406804 -0.1202644
000040 08 c2 3c 3f 6b 27 bc bc cd ba 5a bd b4 9e ef bd
       0.7373357 -0.022968015 -0.053400803 -0.11700192
000050 63 b7 c7 3d 64 05 14 3e 81 5b a9 bd 17 d4 20 3e
       0.09751775 0.14455181 -0.08269406 0.15705906
000060 0b ab 35 bf d3 58 a7 3e 17 d7 dd 3c 3e 0b 09 bf
       -0.70964116 0.32684955 0.027080102 -0.5353278
000070 fa 1f 9f bc a8 c9 f2 bd 60 de 74 3b 70 22 a0 bd
       -0.019424427 -0.11854869 0.003736399 -0.078190684
000080 a9 6b 0c 3f 6f 66 5b 3c a4 ae 21 be 2b 55 bc 3d
       0.54851776 0.013391121 -0.15789276 0.09195932
000090 77 0c 79 bf e2 ad a6 3c a0 06 61 be 95 4e b4 3c
       -0.97284645 0.020346586 -0.21975183 0.022010127
0000a0 34 8b 59 bd 29 1f 07 3e b7 88 88 3e 12 cb 5d 3d
       -0.05311127 0.1319548 0.26666805 0.05414874
0000b0 22 da 7a 3f 99 4c aa be 43 9b 28 be 93 89 c6 3e
       0.97989094 -0.33261564 -0.16465478 0.38776836
0000c0 95 a5 97 3d 8a b3 02 3e 3d 4a 64 be 2b b9 a9 3e
       0.07404629 0.12763801 -0.22293945 0.33149084
0000d0 ce 62 0f bf 0d 95 8a 3e a0 3e 53 3e 5e e9 19 3d
       -0.5601014 0.27066842 0.20629358 0.037576072
0000e0 16 b4 3b 3f 1c d0 ed 3d e6 58 9a 3d c1 d6 0a be
       0.73321664 0.11611959 0.07536487 -0.13558485
0000f0 22 29 c6 bd 91 bd 44 3e 79 60 9b 3e 27 68 a8 3d
       -0.09675814 0.19212939 0.3034704 0.082229905
000100 a6 cf 98 3e 34 ef 27 bd c3 51 ec bd 96 99 bf 3d
       0.29845923 -0.040999606 -0.11539032 0.09355466
000110 14 d4 51 bd 38 a5 1c 3e 9a ae d0 3b b1 9d 27 3e
       -0.051227644 0.15297401 0.0063684704 0.16368748
000120 bc 81 bd be fe e4 4b be a7 ed 55 be 53 e2 06 be
       -0.37013042 -0.19911572 -0.20891438 -0.13172273
000130 a1 3c c6 3e f6 49 12 be 6c 99 21 3e f1 17 87 bd
       0.3871813 -0.14286026 0.15781182 -0.06596363
000140 b0 15 1a 3e b4 00 66 3d b3 9e 98 3d 79 d2 83 3e
       0.15047336 0.056153014 0.074521445 0.25746515
000150 56 41 13 3f 9d 68 8e bd b7 da 07 3d 89 69 01 3f
       0.5752157 -0.06953547 0.033167567 0.5055166
000160 d0 29 04 3e 50 d3 4b bd e3 6f 05 3e 2b b2 39 3e
       0.12906575 -0.04976207 0.13030963 0.18134372
000170 6a 25 22 bf 0c c4 af 3e bf 76 9a bb 5e 45 8e be
       -0.6333834 0.3432926 -0.0047138627 -0.27787298
000180 29 6c 86 3f 1c e9 0f 3e b5 3c 03 be 72 b1 80 be
       1.0501758 0.14053768 -0.12816127 -0.2513538
000190 a0 bc 2a 3c ae 6e 45 be 18 44 80 3d 17 42 a1 bd
       0.010420948 -0.19280502 0.06262988 -0.07873934
0001a0 57 0a 38 be 51 b7 12 be 57 48 db bd 79 0e 3e be
       -0.17972694 -0.14327742 -0.10707157 -0.18560208
0001b0 b5 86 91 bd 9c 6e 9c bc c6 24 f2 bd cf bc a4 bd
       -0.071057715 -0.019095711 -0.1182342 -0.08043825
0001c0 83 44 a3 3e 7a b3 4d 3e a9 79 0c be 36 96 f5 3d
       0.31888208 0.20087996 -0.13718285 0.11991541
0001d0 7f a8 bf bd 78 77 cb bd bb 87 4e be 9a ee 82 3d
       -0.0935831 -0.09934896 -0.20168965 0.06393166
0001e0 3e c5 3f 3e b5 ff 05 be e2 18 c0 bc 63 9d 6a be
       0.18727586 -0.13085826 -0.023449365 -0.22911601
0001f0 14 64 42 bf 2f 4e 44 3e 18 a3 42 bc 03 16 ba be
       -0.7593396 0.1917045 -0.011879705 -0.3634492
000200 fe 52 8b 3c a9 90 9f 3d a5 0b b3 bd 70 e5 b0 be
       0.017007347 0.077912636 -0.087424554 -0.34550047
000210 0e 39 cc 3e c7 68 a3 be 24 b8 1d 3e fd 4d a6 3a
       0.3988728 -0.31915876 0.15402275 0.0012688037
000220 bf 6b 3a bf eb 23 ce bd de b5 f7 3d 7c fa 08 3e
       -0.7282066 -0.100654446 0.12095235 0.13376802
000230 6a 67 12 3e 50 5a 4c 3e a3 11 dc bd bd 9f 57 be
       0.14297262 0.19956326 -0.107455514 -0.21057029
000240 b8 06 6a bf 70 63 00 3c 58 cd 05 3c 6e 15 cd be
       -0.914165 0.007836208 0.008166634 -0.40055412
000250 0b ae 09 3e 07 4f 85 bd 07 ee 00 3e 1c 64 b9 be
       0.13445298 -0.06509214 0.125908 -0.3620919
000260 f9 66 1d 3f 83 b8 89 be 63 b2 99 3d 0c cb 55 3e
       0.6148525 -0.26898584 0.07504728 0.20878237
000270 4b 29 82 bf 5c 10 dc 3d 34 94 26 3e f4 b1 04 3e
       -1.0168852 0.10745308 0.16267473 0.12958509
000280 67 21 35 3d ea 6d 94 bc bc 6c fb bb b2 47 20 be
       0.044221308 -0.018118817 -0.0076728743 -0.1565235
000290 5c ac 07 3f 52 6e 12 be 38 d4 16 bd 6f 98 1f 3d
       0.52997375 -0.14299896 -0.03682348 0.03896373
0002a0 5d fd 4a bd 88 a7 0a be 6d 3d ab 3d d7 94 14 bd
       -0.049558032 -0.1354047 0.083613254 -0.036274757
0002b0 f6 2c 18 bf 23 99 67 3e b1 44 3b 3e ae 1e 8c be
       -0.59443605 0.22617011 0.18287922 -0.27367157
0002c0 7d 7a 71 3f 95 7b 21 3e 85 42 1a be 49 0a 88 be
       0.9432753 0.15769799 -0.15064438 -0.26570347
0002d0 15 20 6d 3d b1 7e 84 be c5 a5 2f bd 8a 3b 1a be
       0.057891924 -0.25877908 -0.0428827 -0.15061775
0002e0 27 70 2c bf c5 1b 54 3d f2 35 4f bb ac c8 a2 bc
       -0.6735863 0.051784296 -0.0031617847 -0.019871078
0002f0 7f 4a db bd c7 51 44 bd 08 bf 04 be 23 8c 62 be
       -0.107075684 -0.04792955 -0.12963498 -0.2212377
000300 be 52 57 3e 3c 1e cb 3d ab c2 a0 3d df ea 75 3d
       0.21027657 0.09917876 0.0784963 0.060038444
000310 46 76 62 bf da 2c 87 3e 7a a0 5c 3e 62 34 83 be
       -0.8846172 0.26401407 0.21545592 -0.25625902
000320 21 5b 57 be c3 99 e7 bd 24 7b ed bd 63 3b 8a be
       -0.21030857 -0.113086246 -0.11595753 -0.26998433
000330 d6 19 c4 be f8 68 96 bc 6f f9 f4 bc 76 fd 60 be
       -0.3830096 -0.0183606 -0.029904095 -0.21971688
000340 01 e7 8b be 55 54 9b bc 37 8f 81 bd c6 99 b0 3b
       -0.2732468 -0.018961111 -0.06326144 0.005389425
000350 25 61 ad 3c 3a bf 82 be 69 84 93 3d 1e 3d 63 3e
       0.021164486 -0.2553652 0.072029896 0.22191283
000360 f8 f3 56 be b5 65 13 3c 34 83 60 3e 5d e3 22 bc
       -0.20991504 0.008996417 0.2192505 -0.009941903
000370 a5 d5 06 3e bb 52 45 be 72 66 1d 3d c9 60 31 3e
       0.13167436 -0.1926984 0.038427778 0.17322077
000380 49 a4 2f 3f bf 10 a2 be 04 31 04 3e 1c 58 f9 3e
       0.68610054 -0.316534 0.12909323 0.48700035
000390 53 48 4f 3d 6c 3e ff 3d 3c 48 e5 3d 1c 0c cf 3e
       0.050606083 0.12463078 0.11195418 0.40438926
0003a0 ec dc 2f bf 21 57 86 3e ff 96 13 be 6c 39 af be
       -0.68696475 0.2623835 -0.14413069 -0.34223497
0003b0 d7 87 90 3f d7 9f b1 3d d1 6d 4d 3e a6 45 f4 3d
       1.1291455 0.08673065 0.20061423 0.11927347
0003c0 63 79 8f bd c6 3f b6 bd c6 9e ad bd 39 fc 96 be
       -0.070055746 -0.088988826 -0.08477549 -0.29489306
0003d0 c4 b8 03 be bd d2 68 be f8 3e 27 3e 70 ae 33 3e
       -0.12863451 -0.2273664 0.16332614 0.17547011
0003e0 84 b5 f6 bd 0d aa 4f be f1 6f 16 3d 04 50 d9 3d
       -0.1204634 -0.20279713 0.03672785 0.10610965
0003f0 ff 5a 78 3d 3e 7f 1f be 3c 6d ea bc 44 08 cc bd
       0.060633656 -0.15575883 -0.02861654 -0.09962514

fc3.bias f4 [20]
000000 95 17 24 bd 78 c2 d8 3d 03 41 a6 3d ad 0e ca 3c
       -0.040061552 0.10583967 0.08117869 0.024665201
000010 be ae 36 3e 2d 14 53 ba e3 6e 2b bd c1 72 06 be
       0.17840096 -0.00080520177 -0.041853797 -0.13129713
000020 58 d3 bd 3c e8 9c 28 bd b2 d6 d3 bb 57 3e 4c bd
       0.023172066 -0.041165262 -0.0064648027 -0.04986414
000030 22 e6 c8 bb fc 73 85 3b 49 bf 74 bb f5 b9 b4 bd
       -0.0061309496 0.0040726643 -0.003734546 -0.08824531
000040 79 3e 12 bd 74 2e 1a bb 8f 5a 05 be 05 ea 24 bc
       -0.03570411 -0.0023526223 -0.13022827 -0.01006556

fc4.weight f4 [20, 20]
000000 cf a8 6d 3d 47 90 9b bd d3 38 96 bd 7f de 52 3d
       0.058022317 -0.07595878 -0.07335057 0.05148172
000010 e2 33 de 3d 8a a1 fe bc ae 65 cb bd 46 82 25 3e
       0.108497396 -0.031082887 -0.09931503 0.16162977
000020 81 c1 3c be f4 6d 89 3e 3b 9b 63 be 20 29 39 bd
       -0.18433191 0.268417 -0.22227184 -0.045205235
000030 c7 89 10 bd 39 e3 98 3d 4f d6 e6 bd d3 37 0d be
       -0.035287645 0.07465214 -0.11271345 -0.13790826
000040 37 54 2f 3e e8 36 28 be 20 e4 80 3a 64 22 67 3e
       0.17121969 -0.16427195 0.0009833612 0.22571713
000050 2a 5b 9e bc 8d a2 a6 3d b0 32 69 bc 4e dd 8b 3c
       -0.01933058 0.08136473 -0.014233276 0.0170733
000060 5c 53 03 3d 9c 0e df bd 5b f8 93 3d 5f bc d9 bd
       0.03206192 -0.108914584 0.072251044 -0.10631632
000070 1a 92 8b bb 8b 7f 65 bc 0f 08 d8 3d 66 34 00 3e
       -0.00425936 -0.014007459 0.10548412 0.12519988
000080 f0 02 18 be 83 6d d4 bd 52 71 3e 3e d7 2f 83 3e
       -0.1484487 -0.1037245 0.18597916 0.25622436
000090 8b e1 aa 3d f5 e3 a2 3d f8 92 05 3e fd 9f a9 3d
       0.083438 0.079536356 0.13044345 0.082824685
0000a0 cb 00 28 3b 02 17 68 3e e9 54 bb be ac 6c 1f 3e
       0.0025635238 0.22665027 -0.3658822 0.15568799
0000b0 e9 01 a4 be 85 f8 51 3e 83 7b 2b 3d 11 29 ca 3e
       -0.32032707 0.20504959 0.041865837 0.39484456
0000c0 a1 58 1f be 26 85 a6 3e d5 0e 4d 3e a9 13 64 be
       -0.15561153 0.3252346 0.20025189 -0.22273125
0000d0 a5 15 5a bd 6b df 7c 3e df 3c 3c be ae 4d df bd
       -0.053243298 0.24694602 -0.18382595 -0.10903488
0000e0 32 37 07 be 2e c9 3a 3e 9e df d0 3d 45 49 1f be
       -0.13204649 0.18240806 0.101989016 -0.15555294
0000f0 78 c0 48 3d 8e 38 57 bd 7e fe 4d bc d7 e1 b5 3d
       0.049011678 -0.05254417 -0.012572883 0.08880966
000100 c3 45 83 3b b2 c1 a5 bc 01 d4 15 3e ae b4 5e 3e
       0.004006119 -0.020233963 0.14631654 0.21748611
000110 8e 3d 73 3d ef 71 cf bd 76 6f 1d be 6e 9a de 3d
       0.059384875 -0.10129153 -0.1537455 0.10869299
000120 0c 05 06 be 6f 6c 53 3c 26 db 23 be 87 6c 60 3e
       -0.13087863 0.012904271 -0.16001567 0.219164
000130 a2 95 eb bd 39 8e 3d 3c 83 b7 24 be 42 f6 2f 3d
       -0.115031496 0.011569553 -0.16085629 0.04295946
000140 79 21 93 3e 69 2a 98 be 64 93 f4 3c eb 47 0d be
       0.28736475 -0.29719856 0.029855438 -0.13796966
000150 64 0e 32 bc 35 06 a3 3d e2 d6 9b be fa 46 08 be
       -0.010867689 0.07960168 -0.3043738 -0.13308325
000160 2a 33 e6 bc 5b 59 db 3c 74 b4 5c 3d 1c 1d 47 3c
       -0.028100569 0.026776006 0.05388303 0.012152936
000170 dc 3d 92 bc 00 66 66 be 0f 14 f6 3d 0b df 1a bd
       -0.017851762 -0.22499847 0.120155446 -0.037810367
000180 af 1b 86 3e f0 c3 41 bd 75 2b 0a be 51 4b 75 3b
       0.26192996 -0.047306 -0.1349314 0.0037428925
000190 38 5d 04 be 10 18 41 bd cc 33 14 3c 93 b6 f0 3c
       -0.12926185 -0.04714209 0.009045552 0.029383933
0001a0 71 cf 82 3e ce ed 25 be a3 b9 7a bd d1 36 81 3d
       0.2554889 -0.16203997 -0.061212193 0.063092835
0001b0 52 d2 be bd 67 94 29 3b fa af ad 3d 4d df 1f 3e
       -0.09317459 0.0025875808 0.084808305 0.15612526
0001c0 28 6c 37 be 80 e5 2c be be 53 15 bd d4 9b 35 3e
       -0.17912352 -0.16884422 -0.036456816 0.17735225
0001d0 6a fe 26 be c2 3b 37 3e a5 0e 00 3e cf 85 49 be
       -0.16307989 0.1789389 0.12505586 -0.1967995
0001e0 fe 4f 16 3e 90 57 52 bd 84 7e 01 3e 69 dc 1a 3d
       0.14678952 -0.051353037 0.12645918 0.037807856
0001f0 10 5d 04 be b0 4e 4e 3d 07 d2 0a be ed 09 44 3d
       -0.12926126 0.05036801 -0.13556682 0.04786103
000200 fe 97 2f 3d 38 2d cf 3c 6c 9c 41 bd fe 6d 1d be
       0.04286956 0.025290117 -0.047268316 -0.1537399
000210 79 64 ba 3d 5f e8 4d 39 24 01 33 3e c8 40 b7 bd
       0.09101195 0.00019636888 0.17480904 -0.08947903
000220 17 ef 57 bd 3e d3 b4 3b 73 8d 58 bc fb 34 3e be
       -0.05271825 0.005518346 -0.013217318 -0.18574898
000230 f9 63 ee bc a8 2d af 3d e1 97 ac 3e 39 4b 9c 3d
       -0.029100405 0.0855363 0.33709624 0.07631535
000240 e2 4a c3 3e cc c9 ce 3d 5a 9d 95 be 96 29 9d be
       0.3814307 0.100970834 -0.29221612 -0.3069579
000250 f1 ba 40 3e 20 20 8c 3d a2 24 34 3d 9c c4 92 3e
       0.18821312 0.06842065 0.04398025 0.28665626
000260 0f b8 90 3d 6f af bf bd 98 13 1f be de eb 6f be
       0.070663564 -0.09359633 -0.15534818 -0.2342982
000270 55 5e 86 3e d1 3a 3e 3e c5 35 2d be ce 24 7d bc
       0.26243845 0.18577124 -0.16915043 -0.015450669
000280 9f 48 49 be 3d b9 97 bd bb ba 0a 3e 83 00 22 be
       -0.19656609 -0.07408378 0.13547795 -0.15820508
000290 3a d4 dd 3d 5f f7 3b bb f8 e0 3f 3e c9 e3 84 bd
       0.10831495 -0.002868138 0.18738163 -0.06488759
0002a0 75 18 1f bd 1e f5 e4 bd 56 f4 80 3e d0 45 3f bd
       -0.038841683 -0.11179565 0.25186414 -0.046697438
0002b0 e0 ea ea bd 09 84 04 3c 61 c4 e0 3c 14 d2 cd bb
       -0.1147058 0.00808812 0.02743739 -0.006281147
0002c0 c4 e9 d5 bd fd 1b c3 bd 88 64 4e be 37 7c 97 bd
       -0.10444978 -0.09526823 -0.20155537 -0.07396739
0002d0 02 81 47 be f6 75 a0 3e de 18 93 bd ff a6 21 3e
       -0.19482806 0.31339997 -0.071824774 0.1578636
0002e0 fd 14 72 be 2c 18 dc bd 96 bd a4 3e 3e 24 de 3c
       -0.23640819 -0.10746798 0.32175893 0.027116891
0002f0 fd a2 09 be 1c 13 b2 3d 22 dd b3 bd bd d3 05 be
       -0.13441081 0.08695051 -0.08782412 -0.13069053
000300 86 a1 8f bd 31 2d 33 3e b9 dc 21 be a7 2d f0 bd
       -0.0701323 0.17497708 -0.15806855 -0.117274575
000310 9e b2 00 3d 3c 21 0a bd 3a a9 26 3e 04 cb 0b 3e
       0.031420343 -0.0337231 0.16275492 0.13651663
000320 69 56 5d 3d 13 ef 88 bd 87 16 4f be 0d 3e 4a be
       0.054037485 -0.06686225 -0.20223437 -0.19750233
000330 84 09 44 bd d5 30 2e 3e b2 f5 f7 3d 8f b3 c6 3d
       -0.047860637 0.17010815 0.121074095 0.09702217
000340 f4 e6 fc 3d b3 47 8b 3d a7 91 22 3e e1 b0 bd 3d
       0.12348738 0.06800785 0.15875874 0.092622526
000350 f6 3e 3e be 60 9c 59 be 55 2f 6c be 68 2b f0 bd
       -0.18578705 -0.21251059 -0.2306493 -0.11727029
000360 70 3a 9a bc ea 57 37 3e e5 38 9a 39 d9 7e 64 3e
       -0.018826693 0.1790463 0.0002941556 0.22314014
000370 ee 13 80 be b7 40 bf 3d 73 03 2d bc 10 60 5f 3d
       -0.25015205 0.09338515 -0.010559904 0.05453497
000380 94 c2 68 3e b4 97 c4 3d 45 c3 09 be ad df 29 3d
       0.22730476 0.095992476 -0.13453396 0.04147308
000390 f5 02 b9 bd 33 2f 89 be 2f df 2e 3e c9 b4 79 bd
       -0.09033767 -0.26793823 0.17077325 -0.060963426
0003a0 65 36 a2 3d 2b 84 1f 3c 4d 5f d6 3d 65 38 ec bd
       0.07920531 0.009736101 0.10467396 -0.11534194
0003b0 a4 48 b7 bd 3f 2f fd bd fc ce 37 3d 8d ca 6f bc
       -0.08949402 -0.12362527 0.04487513 -0.014635694
0003c0 ef 7b e2 bd d7 98 26 be 80 63 1b bb 1e a1 86 3c
       -0.11058795 -0.16269241 -0.002371043 0.016434249
0003d0 fb 3d 15 3b e2 06 04 be 42 68 91 3c 25 23 5b bd
       0.002277254 -0.1289325 0.01774991 -0.053500313
0003e0 b6 d4 2b 3c f3 15 1c 3e a9 32 8b 3d 36 33 49 bd
       0.010487726 0.15242748 0.06796772 -0.049121104
0003f0 a2 cc 83 be 3c b5 c6 bd 52 6b 29 3d 7a 4d 24 be
       -0.2574206 -0.097025365 0.041362114 -0.1604518

fc4.bias f4 [20]
000000 ff a5 93 3c 6d 17 c5 3c 64 5a 04 be e8 9d 0d 3d
       0.018023489 0.024059022 -0.12925106 0.03457442
000010 21 33 02 3e f8 34 f5 bb e7 3b 3d 3b ba f4 08 be
       0.12714817 -0.007483121 0.0028874816 -0.13374606
000020 e6 16 7b bd 5f f6 36 bd 25 1a 5d 3d 80 2b 9e bd
       -0.061301135 -0.04466855 0.05398001 -0.07723141
000030 88 64 b5 3c 19 5e 28 3d a2 21 3b 3d ea 68 b9 bd
       0.022142664 0.041105364 0.04568637 -0.09053214
000040 8f 40 be bd 5b 62 26 bd 70 09 40 be 42 7e 4f 3d
       -0.09289657 -0.040621143 -0.187536 0.05065752

fc5.weight f4 [1, 20]
000000 84 4a de 38 a9 ae f6 b8 4f 65 6a 3e 1d 92 22 3a
       0.000105996645 -0.00011762727 0.22890209 0.0006201582
000010 c9 1d ae bd 00 d8 16 ba a2 47 1c 39 33 0e 08 be
       -0.08501775 -0.00057542324 0.00014904005 -0.13286667
000020 e6 63 ef 38 de 66 a9 3d 66 d4 19 ba fc fa 11 3b
       0.000114150156 0.082715735 -0.00058681366 0.0022274842
000030 7b f1 8c 3a b2 ab 36 3b 0c 0b 7c be b6 19 5f be
       0.0010753119 0.0027873334 -0.24613589 -0.21787152
000040 9f 8c 45 3e 3b c1 54 3b a4 1a 60 3e 33 6d 83 3e
       0.19291924 0.0032463807 0.21885163 0.2566925
